<?xml version="1.0" ?>
<net name="noise-suppression-poconetlike-0001" version="10">
	<layers>
		<layer id="0" name="inp_state_049" type="Parameter" version="opset1">
			<data element_type="f32" shape="1, 2, 129, 1"/>
			<output>
				<port id="0" names="inp_state_049" precision="FP32">
					<dim>1</dim>
					<dim>2</dim>
					<dim>129</dim>
					<dim>1</dim>
				</port>
			</output>
		</layer>
		<layer id="1" name="inp_state_048" type="Parameter" version="opset1">
			<data element_type="f32" shape="1, 2, 129, 4"/>
			<output>
				<port id="0" names="inp_state_048" precision="FP32">
					<dim>1</dim>
					<dim>2</dim>
					<dim>129</dim>
					<dim>4</dim>
				</port>
			</output>
		</layer>
		<layer id="2" name="inp_state_047" type="Parameter" version="opset1">
			<data element_type="f32" shape="1, 64, 129, 2"/>
			<output>
				<port id="0" names="inp_state_047" precision="FP32">
					<dim>1</dim>
					<dim>64</dim>
					<dim>129</dim>
					<dim>2</dim>
				</port>
			</output>
		</layer>
		<layer id="3" name="inp_state_046" type="Parameter" version="opset1">
			<data element_type="f32" shape="1, 48, 129, 2"/>
			<output>
				<port id="0" names="inp_state_046" precision="FP32">
					<dim>1</dim>
					<dim>48</dim>
					<dim>129</dim>
					<dim>2</dim>
				</port>
			</output>
		</layer>
		<layer id="4" name="inp_state_045" type="Parameter" version="opset1">
			<data element_type="f32" shape="1, 32, 129, 2"/>
			<output>
				<port id="0" names="inp_state_045" precision="FP32">
					<dim>1</dim>
					<dim>32</dim>
					<dim>129</dim>
					<dim>2</dim>
				</port>
			</output>
		</layer>
		<layer id="5" name="inp_state_044" type="Parameter" version="opset1">
			<data element_type="f32" shape="1, 64, 129, 2"/>
			<output>
				<port id="0" names="inp_state_044" precision="FP32">
					<dim>1</dim>
					<dim>64</dim>
					<dim>129</dim>
					<dim>2</dim>
				</port>
			</output>
		</layer>
		<layer id="6" name="inp_state_043" type="Parameter" version="opset1">
			<data element_type="f32" shape="1, 64, 32, 22"/>
			<output>
				<port id="0" names="inp_state_043" precision="FP32">
					<dim>1</dim>
					<dim>64</dim>
					<dim>32</dim>
					<dim>22</dim>
				</port>
			</output>
		</layer>
		<layer id="7" name="inp_state_042" type="Parameter" version="opset1">
			<data element_type="f32" shape="1, 64, 32, 22"/>
			<output>
				<port id="0" names="inp_state_042" precision="FP32">
					<dim>1</dim>
					<dim>64</dim>
					<dim>32</dim>
					<dim>22</dim>
				</port>
			</output>
		</layer>
		<layer id="8" name="inp_state_041" type="Parameter" version="opset1">
			<data element_type="f32" shape="1, 128, 64, 2"/>
			<output>
				<port id="0" names="inp_state_041" precision="FP32">
					<dim>1</dim>
					<dim>128</dim>
					<dim>64</dim>
					<dim>2</dim>
				</port>
			</output>
		</layer>
		<layer id="9" name="inp_state_040" type="Parameter" version="opset1">
			<data element_type="f32" shape="1, 96, 64, 2"/>
			<output>
				<port id="0" names="inp_state_040" precision="FP32">
					<dim>1</dim>
					<dim>96</dim>
					<dim>64</dim>
					<dim>2</dim>
				</port>
			</output>
		</layer>
		<layer id="10" name="inp_state_039" type="Parameter" version="opset1">
			<data element_type="f32" shape="1, 64, 64, 2"/>
			<output>
				<port id="0" names="inp_state_039" precision="FP32">
					<dim>1</dim>
					<dim>64</dim>
					<dim>64</dim>
					<dim>2</dim>
				</port>
			</output>
		</layer>
		<layer id="11" name="inp_state_038" type="Parameter" version="opset1">
			<data element_type="f32" shape="1, 128, 64, 2"/>
			<output>
				<port id="0" names="inp_state_038" precision="FP32">
					<dim>1</dim>
					<dim>128</dim>
					<dim>64</dim>
					<dim>2</dim>
				</port>
			</output>
		</layer>
		<layer id="12" name="inp_state_037" type="Parameter" version="opset1">
			<data element_type="f32" shape="1, 32, 64, 16"/>
			<output>
				<port id="0" names="inp_state_037" precision="FP32">
					<dim>1</dim>
					<dim>32</dim>
					<dim>64</dim>
					<dim>16</dim>
				</port>
			</output>
		</layer>
		<layer id="13" name="inp_state_036" type="Parameter" version="opset1">
			<data element_type="f32" shape="1, 32, 64, 16"/>
			<output>
				<port id="0" names="inp_state_036" precision="FP32">
					<dim>1</dim>
					<dim>32</dim>
					<dim>64</dim>
					<dim>16</dim>
				</port>
			</output>
		</layer>
		<layer id="14" name="inp_state_035" type="Parameter" version="opset1">
			<data element_type="f32" shape="1, 256, 32, 2"/>
			<output>
				<port id="0" names="inp_state_035" precision="FP32">
					<dim>1</dim>
					<dim>256</dim>
					<dim>32</dim>
					<dim>2</dim>
				</port>
			</output>
		</layer>
		<layer id="15" name="inp_state_034" type="Parameter" version="opset1">
			<data element_type="f32" shape="1, 192, 32, 2"/>
			<output>
				<port id="0" names="inp_state_034" precision="FP32">
					<dim>1</dim>
					<dim>192</dim>
					<dim>32</dim>
					<dim>2</dim>
				</port>
			</output>
		</layer>
		<layer id="16" name="inp_state_033" type="Parameter" version="opset1">
			<data element_type="f32" shape="1, 128, 32, 2"/>
			<output>
				<port id="0" names="inp_state_033" precision="FP32">
					<dim>1</dim>
					<dim>128</dim>
					<dim>32</dim>
					<dim>2</dim>
				</port>
			</output>
		</layer>
		<layer id="17" name="inp_state_032" type="Parameter" version="opset1">
			<data element_type="f32" shape="1, 256, 32, 2"/>
			<output>
				<port id="0" names="inp_state_032" precision="FP32">
					<dim>1</dim>
					<dim>256</dim>
					<dim>32</dim>
					<dim>2</dim>
				</port>
			</output>
		</layer>
		<layer id="18" name="inp_state_031" type="Parameter" version="opset1">
			<data element_type="f32" shape="1, 16, 128, 11"/>
			<output>
				<port id="0" names="inp_state_031" precision="FP32">
					<dim>1</dim>
					<dim>16</dim>
					<dim>128</dim>
					<dim>11</dim>
				</port>
			</output>
		</layer>
		<layer id="19" name="inp_state_030" type="Parameter" version="opset1">
			<data element_type="f32" shape="1, 16, 128, 11"/>
			<output>
				<port id="0" names="inp_state_030" precision="FP32">
					<dim>1</dim>
					<dim>16</dim>
					<dim>128</dim>
					<dim>11</dim>
				</port>
			</output>
		</layer>
		<layer id="20" name="inp_state_029" type="Parameter" version="opset1">
			<data element_type="f32" shape="1, 512, 16, 2"/>
			<output>
				<port id="0" names="inp_state_029" precision="FP32">
					<dim>1</dim>
					<dim>512</dim>
					<dim>16</dim>
					<dim>2</dim>
				</port>
			</output>
		</layer>
		<layer id="21" name="inp_state_028" type="Parameter" version="opset1">
			<data element_type="f32" shape="1, 384, 16, 2"/>
			<output>
				<port id="0" names="inp_state_028" precision="FP32">
					<dim>1</dim>
					<dim>384</dim>
					<dim>16</dim>
					<dim>2</dim>
				</port>
			</output>
		</layer>
		<layer id="22" name="inp_state_027" type="Parameter" version="opset1">
			<data element_type="f32" shape="1, 256, 16, 2"/>
			<output>
				<port id="0" names="inp_state_027" precision="FP32">
					<dim>1</dim>
					<dim>256</dim>
					<dim>16</dim>
					<dim>2</dim>
				</port>
			</output>
		</layer>
		<layer id="23" name="inp_state_026" type="Parameter" version="opset1">
			<data element_type="f32" shape="1, 512, 16, 2"/>
			<output>
				<port id="0" names="inp_state_026" precision="FP32">
					<dim>1</dim>
					<dim>512</dim>
					<dim>16</dim>
					<dim>2</dim>
				</port>
			</output>
		</layer>
		<layer id="24" name="inp_state_025" type="Parameter" version="opset1">
			<data element_type="f32" shape="1, 8, 256, 8"/>
			<output>
				<port id="0" names="inp_state_025" precision="FP32">
					<dim>1</dim>
					<dim>8</dim>
					<dim>256</dim>
					<dim>8</dim>
				</port>
			</output>
		</layer>
		<layer id="25" name="inp_state_024" type="Parameter" version="opset1">
			<data element_type="f32" shape="1, 8, 256, 8"/>
			<output>
				<port id="0" names="inp_state_024" precision="FP32">
					<dim>1</dim>
					<dim>8</dim>
					<dim>256</dim>
					<dim>8</dim>
				</port>
			</output>
		</layer>
		<layer id="26" name="inp_state_023" type="Parameter" version="opset1">
			<data element_type="f32" shape="1, 512, 8, 2"/>
			<output>
				<port id="0" names="inp_state_023" precision="FP32">
					<dim>1</dim>
					<dim>512</dim>
					<dim>8</dim>
					<dim>2</dim>
				</port>
			</output>
		</layer>
		<layer id="27" name="inp_state_021" type="Parameter" version="opset1">
			<data element_type="f32" shape="1, 256, 8, 2"/>
			<output>
				<port id="0" names="inp_state_021" precision="FP32">
					<dim>1</dim>
					<dim>256</dim>
					<dim>8</dim>
					<dim>2</dim>
				</port>
			</output>
		</layer>
		<layer id="28" name="inp_state_020" type="Parameter" version="opset1">
			<data element_type="f32" shape="1, 16, 256, 11"/>
			<output>
				<port id="0" names="inp_state_020" precision="FP32">
					<dim>1</dim>
					<dim>16</dim>
					<dim>256</dim>
					<dim>11</dim>
				</port>
			</output>
		</layer>
		<layer id="29" name="inp_state_019" type="Parameter" version="opset1">
			<data element_type="f32" shape="1, 16, 256, 11"/>
			<output>
				<port id="0" names="inp_state_019" precision="FP32">
					<dim>1</dim>
					<dim>16</dim>
					<dim>256</dim>
					<dim>11</dim>
				</port>
			</output>
		</layer>
		<layer id="30" name="inp_state_017" type="Parameter" version="opset1">
			<data element_type="f32" shape="1, 192, 16, 2"/>
			<output>
				<port id="0" names="inp_state_017" precision="FP32">
					<dim>1</dim>
					<dim>192</dim>
					<dim>16</dim>
					<dim>2</dim>
				</port>
			</output>
		</layer>
		<layer id="31" name="inp_state_016" type="Parameter" version="opset1">
			<data element_type="f32" shape="1, 128, 16, 2"/>
			<output>
				<port id="0" names="inp_state_016" precision="FP32">
					<dim>1</dim>
					<dim>128</dim>
					<dim>16</dim>
					<dim>2</dim>
				</port>
			</output>
		</layer>
		<layer id="32" name="inp_state_015" type="Parameter" version="opset1">
			<data element_type="f32" shape="1, 32, 128, 16"/>
			<output>
				<port id="0" names="inp_state_015" precision="FP32">
					<dim>1</dim>
					<dim>32</dim>
					<dim>128</dim>
					<dim>16</dim>
				</port>
			</output>
		</layer>
		<layer id="33" name="inp_state_014" type="Parameter" version="opset1">
			<data element_type="f32" shape="1, 32, 128, 16"/>
			<output>
				<port id="0" names="inp_state_014" precision="FP32">
					<dim>1</dim>
					<dim>32</dim>
					<dim>128</dim>
					<dim>16</dim>
				</port>
			</output>
		</layer>
		<layer id="34" name="inp_state_012" type="Parameter" version="opset1">
			<data element_type="f32" shape="1, 96, 32, 2"/>
			<output>
				<port id="0" names="inp_state_012" precision="FP32">
					<dim>1</dim>
					<dim>96</dim>
					<dim>32</dim>
					<dim>2</dim>
				</port>
			</output>
		</layer>
		<layer id="35" name="inp_state_011" type="Parameter" version="opset1">
			<data element_type="f32" shape="1, 64, 32, 2"/>
			<output>
				<port id="0" names="inp_state_011" precision="FP32">
					<dim>1</dim>
					<dim>64</dim>
					<dim>32</dim>
					<dim>2</dim>
				</port>
			</output>
		</layer>
		<layer id="36" name="inp_state_010" type="Parameter" version="opset1">
			<data element_type="f32" shape="1, 64, 64, 22"/>
			<output>
				<port id="0" names="inp_state_010" precision="FP32">
					<dim>1</dim>
					<dim>64</dim>
					<dim>64</dim>
					<dim>22</dim>
				</port>
			</output>
		</layer>
		<layer id="37" name="inp_state_009" type="Parameter" version="opset1">
			<data element_type="f32" shape="1, 64, 64, 22"/>
			<output>
				<port id="0" names="inp_state_009" precision="FP32">
					<dim>1</dim>
					<dim>64</dim>
					<dim>64</dim>
					<dim>22</dim>
				</port>
			</output>
		</layer>
		<layer id="38" name="inp_state_007" type="Parameter" version="opset1">
			<data element_type="f32" shape="1, 48, 64, 2"/>
			<output>
				<port id="0" names="inp_state_007" precision="FP32">
					<dim>1</dim>
					<dim>48</dim>
					<dim>64</dim>
					<dim>2</dim>
				</port>
			</output>
		</layer>
		<layer id="39" name="inp_state_006" type="Parameter" version="opset1">
			<data element_type="f32" shape="1, 32, 64, 2"/>
			<output>
				<port id="0" names="inp_state_006" precision="FP32">
					<dim>1</dim>
					<dim>32</dim>
					<dim>64</dim>
					<dim>2</dim>
				</port>
			</output>
		</layer>
		<layer id="40" name="inp_state_005" type="Parameter" version="opset1">
			<data element_type="f32" shape="1, 129, 32, 32"/>
			<output>
				<port id="0" names="inp_state_005" precision="FP32">
					<dim>1</dim>
					<dim>129</dim>
					<dim>32</dim>
					<dim>32</dim>
				</port>
			</output>
		</layer>
		<layer id="41" name="inp_state_004" type="Parameter" version="opset1">
			<data element_type="f32" shape="1, 129, 32, 32"/>
			<output>
				<port id="0" names="inp_state_004" precision="FP32">
					<dim>1</dim>
					<dim>129</dim>
					<dim>32</dim>
					<dim>32</dim>
				</port>
			</output>
		</layer>
		<layer id="42" name="inp_state_002" type="Parameter" version="opset1">
			<data element_type="f32" shape="1, 18, 129, 2"/>
			<output>
				<port id="0" names="inp_state_002" precision="FP32">
					<dim>1</dim>
					<dim>18</dim>
					<dim>129</dim>
					<dim>2</dim>
				</port>
			</output>
		</layer>
		<layer id="43" name="inp_state_001" type="Parameter" version="opset1">
			<data element_type="f32" shape="1, 2, 129, 2"/>
			<output>
				<port id="0" names="inp_state_001" precision="FP32">
					<dim>1</dim>
					<dim>2</dim>
					<dim>129</dim>
					<dim>2</dim>
				</port>
			</output>
		</layer>
		<layer id="44" name="input" type="Parameter" version="opset1">
			<data element_type="f32" shape="1, 2048"/>
			<output>
				<port id="0" names="input" precision="FP32">
					<dim>1</dim>
					<dim>2048</dim>
				</port>
			</output>
		</layer>
		<layer id="45" name="inp_state_000" type="Parameter" version="opset1">
			<data element_type="f32" shape="1, 128"/>
			<output>
				<port id="0" names="inp_state_000" precision="FP32">
					<dim>1</dim>
					<dim>128</dim>
				</port>
			</output>
		</layer>
		<layer id="46" name="inp_state_003" type="Parameter" version="opset1">
			<data element_type="f32" shape="1, 34, 129, 2"/>
			<output>
				<port id="0" names="inp_state_003" precision="FP32">
					<dim>1</dim>
					<dim>34</dim>
					<dim>129</dim>
					<dim>2</dim>
				</port>
			</output>
		</layer>
		<layer id="47" name="inp_state_008" type="Parameter" version="opset1">
			<data element_type="f32" shape="1, 64, 64, 2"/>
			<output>
				<port id="0" names="inp_state_008" precision="FP32">
					<dim>1</dim>
					<dim>64</dim>
					<dim>64</dim>
					<dim>2</dim>
				</port>
			</output>
		</layer>
		<layer id="48" name="inp_state_013" type="Parameter" version="opset1">
			<data element_type="f32" shape="1, 128, 32, 2"/>
			<output>
				<port id="0" names="inp_state_013" precision="FP32">
					<dim>1</dim>
					<dim>128</dim>
					<dim>32</dim>
					<dim>2</dim>
				</port>
			</output>
		</layer>
		<layer id="49" name="inp_state_018" type="Parameter" version="opset1">
			<data element_type="f32" shape="1, 256, 16, 2"/>
			<output>
				<port id="0" names="inp_state_018" precision="FP32">
					<dim>1</dim>
					<dim>256</dim>
					<dim>16</dim>
					<dim>2</dim>
				</port>
			</output>
		</layer>
		<layer id="50" name="inp_state_022" type="Parameter" version="opset1">
			<data element_type="f32" shape="1, 384, 8, 2"/>
			<output>
				<port id="0" names="inp_state_022" precision="FP32">
					<dim>1</dim>
					<dim>384</dim>
					<dim>8</dim>
					<dim>2</dim>
				</port>
			</output>
		</layer>
		<layer id="51" name="Concat_0" type="Concat" version="opset1">
			<data axis="1"/>
			<input>
				<port id="0" precision="FP32">
					<dim>1</dim>
					<dim>128</dim>
				</port>
				<port id="1" precision="FP32">
					<dim>1</dim>
					<dim>2048</dim>
				</port>
			</input>
			<output>
				<port id="2" names="337" precision="FP32">
					<dim>1</dim>
					<dim>2176</dim>
				</port>
			</output>
		</layer>
		<layer id="52" name="Unsqueeze_12/Dims" type="Const" version="opset1">
			<data element_type="i64" offset="0" shape="1" size="8"/>
			<output>
				<port id="0" precision="I64">
					<dim>1</dim>
				</port>
			</output>
		</layer>
		<layer id="53" name="Unsqueeze_12/Unsqueeze" type="Unsqueeze" version="opset1">
			<input>
				<port id="0" precision="FP32">
					<dim>1</dim>
					<dim>2176</dim>
				</port>
				<port id="1" precision="I64">
					<dim>1</dim>
				</port>
			</input>
			<output>
				<port id="2" names="351" precision="FP32">
					<dim>1</dim>
					<dim>1</dim>
					<dim>2176</dim>
				</port>
			</output>
		</layer>
		<layer id="54" name="Unsqueeze_13/Dims" type="Const" version="opset1">
			<data element_type="i64" offset="8" shape="1" size="8"/>
			<output>
				<port id="0" precision="I64">
					<dim>1</dim>
				</port>
			</output>
		</layer>
		<layer id="55" name="Unsqueeze_13/Unsqueeze" type="Unsqueeze" version="opset1">
			<input>
				<port id="0" precision="FP32">
					<dim>1</dim>
					<dim>1</dim>
					<dim>2176</dim>
				</port>
				<port id="1" precision="I64">
					<dim>1</dim>
				</port>
			</input>
			<output>
				<port id="2" names="352" precision="FP32">
					<dim>1</dim>
					<dim>1</dim>
					<dim>1</dim>
					<dim>2176</dim>
				</port>
			</output>
		</layer>
		<layer id="56" name="_encdec_matrix140143" type="Const" version="opset1">
			<data element_type="f32" offset="16" shape="258, 1, 1, 256" size="264192"/>
			<output>
				<port id="0" names="_encdec_matrix" precision="FP32">
					<dim>258</dim>
					<dim>1</dim>
					<dim>1</dim>
					<dim>256</dim>
				</port>
			</output>
		</layer>
		<layer id="57" name="Conv_14" type="Convolution" version="opset1">
			<data auto_pad="explicit" dilations="1, 1" pads_begin="0, 0" pads_end="0, 0" strides="128, 128"/>
			<input>
				<port id="0" precision="FP32">
					<dim>1</dim>
					<dim>1</dim>
					<dim>1</dim>
					<dim>2176</dim>
				</port>
				<port id="1" precision="FP32">
					<dim>258</dim>
					<dim>1</dim>
					<dim>1</dim>
					<dim>256</dim>
				</port>
			</input>
			<output>
				<port id="2" names="353" precision="FP32">
					<dim>1</dim>
					<dim>258</dim>
					<dim>1</dim>
					<dim>16</dim>
				</port>
			</output>
		</layer>
		<layer id="58" name="Shape_15" type="ShapeOf" version="opset3">
			<data output_type="i64"/>
			<input>
				<port id="0" precision="FP32">
					<dim>1</dim>
					<dim>258</dim>
					<dim>1</dim>
					<dim>16</dim>
				</port>
			</input>
			<output>
				<port id="1" names="354" precision="I64">
					<dim>4</dim>
				</port>
			</output>
		</layer>
		<layer id="59" name="Constant_16" type="Const" version="opset1">
			<data element_type="i32" offset="264208" shape="" size="4"/>
			<output>
				<port id="0" names="355" precision="I32"/>
			</output>
		</layer>
		<layer id="60" name="Gather_17/axis" type="Const" version="opset1">
			<data element_type="i64" offset="264212" shape="" size="8"/>
			<output>
				<port id="0" precision="I64"/>
			</output>
		</layer>
		<layer id="61" name="Gather_173981" type="Gather" version="opset7">
			<data batch_dims="0"/>
			<input>
				<port id="0" precision="I64">
					<dim>4</dim>
				</port>
				<port id="1" precision="I32"/>
				<port id="2" precision="I64"/>
			</input>
			<output>
				<port id="3" names="356" precision="I64"/>
			</output>
		</layer>
		<layer id="62" name="Unsqueeze_28/Dims" type="Const" version="opset1">
			<data element_type="i64" offset="264212" shape="1" size="8"/>
			<output>
				<port id="0" precision="I64">
					<dim>1</dim>
				</port>
			</output>
		</layer>
		<layer id="63" name="Unsqueeze_28/Unsqueeze" type="Unsqueeze" version="opset1">
			<input>
				<port id="0" precision="I64"/>
				<port id="1" precision="I64">
					<dim>1</dim>
				</port>
			</input>
			<output>
				<port id="2" names="368" precision="I64">
					<dim>1</dim>
				</port>
			</output>
		</layer>
		<layer id="64" name="3174" type="Const" version="opset1">
			<data element_type="i64" offset="8" shape="1" size="8"/>
			<output>
				<port id="0" names="3174" precision="I64">
					<dim>1</dim>
				</port>
			</output>
		</layer>
		<layer id="65" name="Shape_18" type="ShapeOf" version="opset3">
			<data output_type="i64"/>
			<input>
				<port id="0" precision="FP32">
					<dim>1</dim>
					<dim>258</dim>
					<dim>1</dim>
					<dim>16</dim>
				</port>
			</input>
			<output>
				<port id="1" names="357" precision="I64">
					<dim>4</dim>
				</port>
			</output>
		</layer>
		<layer id="66" name="Constant_19" type="Const" version="opset1">
			<data element_type="i32" offset="264220" shape="" size="4"/>
			<output>
				<port id="0" names="358" precision="I32"/>
			</output>
		</layer>
		<layer id="67" name="Gather_20/axis" type="Const" version="opset1">
			<data element_type="i64" offset="264212" shape="" size="8"/>
			<output>
				<port id="0" precision="I64"/>
			</output>
		</layer>
		<layer id="68" name="Gather_203827" type="Gather" version="opset7">
			<data batch_dims="0"/>
			<input>
				<port id="0" precision="I64">
					<dim>4</dim>
				</port>
				<port id="1" precision="I32"/>
				<port id="2" precision="I64"/>
			</input>
			<output>
				<port id="3" names="359" precision="I64"/>
			</output>
		</layer>
		<layer id="69" name="Constant_24" type="Const" version="opset1">
			<data element_type="i64" offset="8" shape="" size="8"/>
			<output>
				<port id="0" names="363" precision="I64"/>
			</output>
		</layer>
		<layer id="70" name="Div_25" type="Divide" version="opset1">
			<data auto_broadcast="numpy" m_pythondiv="true"/>
			<input>
				<port id="0" precision="I64"/>
				<port id="1" precision="I64"/>
			</input>
			<output>
				<port id="2" names="364,365,366" precision="I64"/>
			</output>
		</layer>
		<layer id="71" name="Unsqueeze_29/Dims" type="Const" version="opset1">
			<data element_type="i64" offset="264212" shape="1" size="8"/>
			<output>
				<port id="0" precision="I64">
					<dim>1</dim>
				</port>
			</output>
		</layer>
		<layer id="72" name="Unsqueeze_29/Unsqueeze" type="Unsqueeze" version="opset1">
			<input>
				<port id="0" precision="I64"/>
				<port id="1" precision="I64">
					<dim>1</dim>
				</port>
			</input>
			<output>
				<port id="2" names="370" precision="I64">
					<dim>1</dim>
				</port>
			</output>
		</layer>
		<layer id="73" name="Shape_21" type="ShapeOf" version="opset3">
			<data output_type="i64"/>
			<input>
				<port id="0" precision="FP32">
					<dim>1</dim>
					<dim>258</dim>
					<dim>1</dim>
					<dim>16</dim>
				</port>
			</input>
			<output>
				<port id="1" names="360" precision="I64">
					<dim>4</dim>
				</port>
			</output>
		</layer>
		<layer id="74" name="Constant_22" type="Const" version="opset1">
			<data element_type="i32" offset="264224" shape="" size="4"/>
			<output>
				<port id="0" names="361" precision="I32"/>
			</output>
		</layer>
		<layer id="75" name="Gather_23/axis" type="Const" version="opset1">
			<data element_type="i64" offset="264212" shape="" size="8"/>
			<output>
				<port id="0" precision="I64"/>
			</output>
		</layer>
		<layer id="76" name="Gather_233829" type="Gather" version="opset7">
			<data batch_dims="0"/>
			<input>
				<port id="0" precision="I64">
					<dim>4</dim>
				</port>
				<port id="1" precision="I32"/>
				<port id="2" precision="I64"/>
			</input>
			<output>
				<port id="3" names="362" precision="I64"/>
			</output>
		</layer>
		<layer id="77" name="Unsqueeze_30/Dims" type="Const" version="opset1">
			<data element_type="i64" offset="264212" shape="1" size="8"/>
			<output>
				<port id="0" precision="I64">
					<dim>1</dim>
				</port>
			</output>
		</layer>
		<layer id="78" name="Unsqueeze_30/Unsqueeze" type="Unsqueeze" version="opset1">
			<input>
				<port id="0" precision="I64"/>
				<port id="1" precision="I64">
					<dim>1</dim>
				</port>
			</input>
			<output>
				<port id="2" names="371" precision="I64">
					<dim>1</dim>
				</port>
			</output>
		</layer>
		<layer id="79" name="Concat_31" type="Concat" version="opset1">
			<data axis="0"/>
			<input>
				<port id="0" precision="I64">
					<dim>1</dim>
				</port>
				<port id="1" precision="I64">
					<dim>1</dim>
				</port>
				<port id="2" precision="I64">
					<dim>1</dim>
				</port>
				<port id="3" precision="I64">
					<dim>1</dim>
				</port>
			</input>
			<output>
				<port id="4" names="372" precision="I64">
					<dim>4</dim>
				</port>
			</output>
		</layer>
		<layer id="80" name="Reshape_32" type="Reshape" version="opset1">
			<data special_zero="true"/>
			<input>
				<port id="0" precision="FP32">
					<dim>1</dim>
					<dim>258</dim>
					<dim>1</dim>
					<dim>16</dim>
				</port>
				<port id="1" precision="I64">
					<dim>4</dim>
				</port>
			</input>
			<output>
				<port id="2" names="373" precision="FP32">
					<dim>1</dim>
					<dim>2</dim>
					<dim>129</dim>
					<dim>16</dim>
				</port>
			</output>
		</layer>
		<layer id="81" name="data_mul_53966" type="Const" version="opset1">
			<data element_type="f32" offset="264228" shape="1, 2, 1, 1" size="8"/>
			<output>
				<port id="0" precision="FP32">
					<dim>1</dim>
					<dim>2</dim>
					<dim>1</dim>
					<dim>1</dim>
				</port>
			</output>
		</layer>
		<layer id="82" name="BatchNormalization_33/mean/Fused_Mul_" type="Multiply" version="opset1">
			<data auto_broadcast="numpy"/>
			<input>
				<port id="0" precision="FP32">
					<dim>1</dim>
					<dim>2</dim>
					<dim>129</dim>
					<dim>16</dim>
				</port>
				<port id="1" precision="FP32">
					<dim>1</dim>
					<dim>2</dim>
					<dim>1</dim>
					<dim>1</dim>
				</port>
			</input>
			<output>
				<port id="2" precision="FP32">
					<dim>1</dim>
					<dim>2</dim>
					<dim>129</dim>
					<dim>16</dim>
				</port>
			</output>
		</layer>
		<layer id="83" name="data_add_53968" type="Const" version="opset1">
			<data element_type="f32" offset="264236" shape="1, 2, 1, 1" size="8"/>
			<output>
				<port id="0" precision="FP32">
					<dim>1</dim>
					<dim>2</dim>
					<dim>1</dim>
					<dim>1</dim>
				</port>
			</output>
		</layer>
		<layer id="84" name="BatchNormalization_33/variance/Fused_Add_" type="Add" version="opset1">
			<data auto_broadcast="numpy"/>
			<input>
				<port id="0" precision="FP32">
					<dim>1</dim>
					<dim>2</dim>
					<dim>129</dim>
					<dim>16</dim>
				</port>
				<port id="1" precision="FP32">
					<dim>1</dim>
					<dim>2</dim>
					<dim>1</dim>
					<dim>1</dim>
				</port>
			</input>
			<output>
				<port id="2" names="374" precision="FP32">
					<dim>1</dim>
					<dim>2</dim>
					<dim>129</dim>
					<dim>16</dim>
				</port>
			</output>
		</layer>
		<layer id="85" name="LeakyRelu_34/weights90430140239" type="Const" version="opset1">
			<data element_type="f32" offset="264244" shape="1" size="4"/>
			<output>
				<port id="0" precision="FP32">
					<dim>1</dim>
				</port>
			</output>
		</layer>
		<layer id="86" name="LeakyRelu_34" type="PReLU" version="opset1">
			<input>
				<port id="0" precision="FP32">
					<dim>1</dim>
					<dim>2</dim>
					<dim>129</dim>
					<dim>16</dim>
				</port>
				<port id="1" precision="FP32">
					<dim>1</dim>
				</port>
			</input>
			<output>
				<port id="2" names="375" precision="FP32">
					<dim>1</dim>
					<dim>2</dim>
					<dim>129</dim>
					<dim>16</dim>
				</port>
			</output>
		</layer>
		<layer id="87" name="Concat_35" type="Concat" version="opset1">
			<data axis="3"/>
			<input>
				<port id="0" precision="FP32">
					<dim>1</dim>
					<dim>2</dim>
					<dim>129</dim>
					<dim>2</dim>
				</port>
				<port id="1" precision="FP32">
					<dim>1</dim>
					<dim>2</dim>
					<dim>129</dim>
					<dim>16</dim>
				</port>
			</input>
			<output>
				<port id="2" names="376" precision="FP32">
					<dim>1</dim>
					<dim>2</dim>
					<dim>129</dim>
					<dim>18</dim>
				</port>
			</output>
		</layer>
		<layer id="88" name="blocks_down.0.bd.0.conv.weight" type="Const" version="opset1">
			<data element_type="f32" offset="264248" shape="16, 2, 3, 3" size="1152"/>
			<output>
				<port id="0" names="blocks_down.0.bd.0.conv.weight" precision="FP32">
					<dim>16</dim>
					<dim>2</dim>
					<dim>3</dim>
					<dim>3</dim>
				</port>
			</output>
		</layer>
		<layer id="89" name="Conv_62/WithoutBiases" type="Convolution" version="opset1">
			<data auto_pad="explicit" dilations="1, 1" pads_begin="1, 0" pads_end="1, 0" strides="1, 1"/>
			<input>
				<port id="0" precision="FP32">
					<dim>1</dim>
					<dim>2</dim>
					<dim>129</dim>
					<dim>18</dim>
				</port>
				<port id="1" precision="FP32">
					<dim>16</dim>
					<dim>2</dim>
					<dim>3</dim>
					<dim>3</dim>
				</port>
			</input>
			<output>
				<port id="2" precision="FP32">
					<dim>1</dim>
					<dim>16</dim>
					<dim>129</dim>
					<dim>16</dim>
				</port>
			</output>
		</layer>
		<layer id="90" name="Conv_62/Dims27508" type="Const" version="opset1">
			<data element_type="f32" offset="265400" shape="1, 16, 1, 1" size="64"/>
			<output>
				<port id="0" precision="FP32">
					<dim>1</dim>
					<dim>16</dim>
					<dim>1</dim>
					<dim>1</dim>
				</port>
			</output>
		</layer>
		<layer id="91" name="Conv_62" type="Add" version="opset1">
			<data auto_broadcast="numpy"/>
			<input>
				<port id="0" precision="FP32">
					<dim>1</dim>
					<dim>16</dim>
					<dim>129</dim>
					<dim>16</dim>
				</port>
				<port id="1" precision="FP32">
					<dim>1</dim>
					<dim>16</dim>
					<dim>1</dim>
					<dim>1</dim>
				</port>
			</input>
			<output>
				<port id="2" names="414" precision="FP32">
					<dim>1</dim>
					<dim>16</dim>
					<dim>129</dim>
					<dim>16</dim>
				</port>
			</output>
		</layer>
		<layer id="92" name="Concat_63" type="Concat" version="opset1">
			<data axis="1"/>
			<input>
				<port id="0" precision="FP32">
					<dim>1</dim>
					<dim>2</dim>
					<dim>129</dim>
					<dim>16</dim>
				</port>
				<port id="1" precision="FP32">
					<dim>1</dim>
					<dim>16</dim>
					<dim>129</dim>
					<dim>16</dim>
				</port>
			</input>
			<output>
				<port id="2" names="415" precision="FP32">
					<dim>1</dim>
					<dim>18</dim>
					<dim>129</dim>
					<dim>16</dim>
				</port>
			</output>
		</layer>
		<layer id="93" name="data_mul_5397053974" type="Const" version="opset1">
			<data element_type="f32" offset="265464" shape="1, 18, 1, 1" size="72"/>
			<output>
				<port id="0" precision="FP32">
					<dim>1</dim>
					<dim>18</dim>
					<dim>1</dim>
					<dim>1</dim>
				</port>
			</output>
		</layer>
		<layer id="94" name="BatchNormalization_64/mean/Fused_Mul_" type="Multiply" version="opset1">
			<data auto_broadcast="numpy"/>
			<input>
				<port id="0" precision="FP32">
					<dim>1</dim>
					<dim>18</dim>
					<dim>129</dim>
					<dim>16</dim>
				</port>
				<port id="1" precision="FP32">
					<dim>1</dim>
					<dim>18</dim>
					<dim>1</dim>
					<dim>1</dim>
				</port>
			</input>
			<output>
				<port id="2" precision="FP32">
					<dim>1</dim>
					<dim>18</dim>
					<dim>129</dim>
					<dim>16</dim>
				</port>
			</output>
		</layer>
		<layer id="95" name="data_add_5397153976" type="Const" version="opset1">
			<data element_type="f32" offset="265536" shape="1, 18, 1, 1" size="72"/>
			<output>
				<port id="0" precision="FP32">
					<dim>1</dim>
					<dim>18</dim>
					<dim>1</dim>
					<dim>1</dim>
				</port>
			</output>
		</layer>
		<layer id="96" name="BatchNormalization_64/variance/Fused_Add_" type="Add" version="opset1">
			<data auto_broadcast="numpy"/>
			<input>
				<port id="0" precision="FP32">
					<dim>1</dim>
					<dim>18</dim>
					<dim>129</dim>
					<dim>16</dim>
				</port>
				<port id="1" precision="FP32">
					<dim>1</dim>
					<dim>18</dim>
					<dim>1</dim>
					<dim>1</dim>
				</port>
			</input>
			<output>
				<port id="2" names="416" precision="FP32">
					<dim>1</dim>
					<dim>18</dim>
					<dim>129</dim>
					<dim>16</dim>
				</port>
			</output>
		</layer>
		<layer id="97" name="LeakyRelu_65/weights90434141205" type="Const" version="opset1">
			<data element_type="f32" offset="264244" shape="1" size="4"/>
			<output>
				<port id="0" precision="FP32">
					<dim>1</dim>
				</port>
			</output>
		</layer>
		<layer id="98" name="LeakyRelu_65" type="PReLU" version="opset1">
			<input>
				<port id="0" precision="FP32">
					<dim>1</dim>
					<dim>18</dim>
					<dim>129</dim>
					<dim>16</dim>
				</port>
				<port id="1" precision="FP32">
					<dim>1</dim>
				</port>
			</input>
			<output>
				<port id="2" names="417" precision="FP32">
					<dim>1</dim>
					<dim>18</dim>
					<dim>129</dim>
					<dim>16</dim>
				</port>
			</output>
		</layer>
		<layer id="99" name="Concat_66" type="Concat" version="opset1">
			<data axis="3"/>
			<input>
				<port id="0" precision="FP32">
					<dim>1</dim>
					<dim>18</dim>
					<dim>129</dim>
					<dim>2</dim>
				</port>
				<port id="1" precision="FP32">
					<dim>1</dim>
					<dim>18</dim>
					<dim>129</dim>
					<dim>16</dim>
				</port>
			</input>
			<output>
				<port id="2" names="418" precision="FP32">
					<dim>1</dim>
					<dim>18</dim>
					<dim>129</dim>
					<dim>18</dim>
				</port>
			</output>
		</layer>
		<layer id="100" name="blocks_down.0.bd.1.conv.weight" type="Const" version="opset1">
			<data element_type="f32" offset="265608" shape="16, 18, 3, 3" size="10368"/>
			<output>
				<port id="0" names="blocks_down.0.bd.1.conv.weight" precision="FP32">
					<dim>16</dim>
					<dim>18</dim>
					<dim>3</dim>
					<dim>3</dim>
				</port>
			</output>
		</layer>
		<layer id="101" name="Conv_93/WithoutBiases" type="Convolution" version="opset1">
			<data auto_pad="explicit" dilations="1, 1" pads_begin="1, 0" pads_end="1, 0" strides="1, 1"/>
			<input>
				<port id="0" precision="FP32">
					<dim>1</dim>
					<dim>18</dim>
					<dim>129</dim>
					<dim>18</dim>
				</port>
				<port id="1" precision="FP32">
					<dim>16</dim>
					<dim>18</dim>
					<dim>3</dim>
					<dim>3</dim>
				</port>
			</input>
			<output>
				<port id="2" precision="FP32">
					<dim>1</dim>
					<dim>16</dim>
					<dim>129</dim>
					<dim>16</dim>
				</port>
			</output>
		</layer>
		<layer id="102" name="Conv_93/Dims27292" type="Const" version="opset1">
			<data element_type="f32" offset="275976" shape="1, 16, 1, 1" size="64"/>
			<output>
				<port id="0" precision="FP32">
					<dim>1</dim>
					<dim>16</dim>
					<dim>1</dim>
					<dim>1</dim>
				</port>
			</output>
		</layer>
		<layer id="103" name="Conv_93" type="Add" version="opset1">
			<data auto_broadcast="numpy"/>
			<input>
				<port id="0" precision="FP32">
					<dim>1</dim>
					<dim>16</dim>
					<dim>129</dim>
					<dim>16</dim>
				</port>
				<port id="1" precision="FP32">
					<dim>1</dim>
					<dim>16</dim>
					<dim>1</dim>
					<dim>1</dim>
				</port>
			</input>
			<output>
				<port id="2" names="456" precision="FP32">
					<dim>1</dim>
					<dim>16</dim>
					<dim>129</dim>
					<dim>16</dim>
				</port>
			</output>
		</layer>
		<layer id="104" name="Concat_94" type="Concat" version="opset1">
			<data axis="1"/>
			<input>
				<port id="0" precision="FP32">
					<dim>1</dim>
					<dim>18</dim>
					<dim>129</dim>
					<dim>16</dim>
				</port>
				<port id="1" precision="FP32">
					<dim>1</dim>
					<dim>16</dim>
					<dim>129</dim>
					<dim>16</dim>
				</port>
			</input>
			<output>
				<port id="2" names="457" precision="FP32">
					<dim>1</dim>
					<dim>34</dim>
					<dim>129</dim>
					<dim>16</dim>
				</port>
			</output>
		</layer>
		<layer id="105" name="data_mul_5397853982" type="Const" version="opset1">
			<data element_type="f32" offset="276040" shape="1, 34, 1, 1" size="136"/>
			<output>
				<port id="0" precision="FP32">
					<dim>1</dim>
					<dim>34</dim>
					<dim>1</dim>
					<dim>1</dim>
				</port>
			</output>
		</layer>
		<layer id="106" name="BatchNormalization_95/mean/Fused_Mul_" type="Multiply" version="opset1">
			<data auto_broadcast="numpy"/>
			<input>
				<port id="0" precision="FP32">
					<dim>1</dim>
					<dim>34</dim>
					<dim>129</dim>
					<dim>16</dim>
				</port>
				<port id="1" precision="FP32">
					<dim>1</dim>
					<dim>34</dim>
					<dim>1</dim>
					<dim>1</dim>
				</port>
			</input>
			<output>
				<port id="2" precision="FP32">
					<dim>1</dim>
					<dim>34</dim>
					<dim>129</dim>
					<dim>16</dim>
				</port>
			</output>
		</layer>
		<layer id="107" name="data_add_5397953984" type="Const" version="opset1">
			<data element_type="f32" offset="276176" shape="1, 34, 1, 1" size="136"/>
			<output>
				<port id="0" precision="FP32">
					<dim>1</dim>
					<dim>34</dim>
					<dim>1</dim>
					<dim>1</dim>
				</port>
			</output>
		</layer>
		<layer id="108" name="BatchNormalization_95/variance/Fused_Add_" type="Add" version="opset1">
			<data auto_broadcast="numpy"/>
			<input>
				<port id="0" precision="FP32">
					<dim>1</dim>
					<dim>34</dim>
					<dim>129</dim>
					<dim>16</dim>
				</port>
				<port id="1" precision="FP32">
					<dim>1</dim>
					<dim>34</dim>
					<dim>1</dim>
					<dim>1</dim>
				</port>
			</input>
			<output>
				<port id="2" names="458" precision="FP32">
					<dim>1</dim>
					<dim>34</dim>
					<dim>129</dim>
					<dim>16</dim>
				</port>
			</output>
		</layer>
		<layer id="109" name="LeakyRelu_96/weights90510139789" type="Const" version="opset1">
			<data element_type="f32" offset="264244" shape="1" size="4"/>
			<output>
				<port id="0" precision="FP32">
					<dim>1</dim>
				</port>
			</output>
		</layer>
		<layer id="110" name="LeakyRelu_96" type="PReLU" version="opset1">
			<input>
				<port id="0" precision="FP32">
					<dim>1</dim>
					<dim>34</dim>
					<dim>129</dim>
					<dim>16</dim>
				</port>
				<port id="1" precision="FP32">
					<dim>1</dim>
				</port>
			</input>
			<output>
				<port id="2" names="459" precision="FP32">
					<dim>1</dim>
					<dim>34</dim>
					<dim>129</dim>
					<dim>16</dim>
				</port>
			</output>
		</layer>
		<layer id="111" name="Concat_97" type="Concat" version="opset1">
			<data axis="3"/>
			<input>
				<port id="0" precision="FP32">
					<dim>1</dim>
					<dim>34</dim>
					<dim>129</dim>
					<dim>2</dim>
				</port>
				<port id="1" precision="FP32">
					<dim>1</dim>
					<dim>34</dim>
					<dim>129</dim>
					<dim>16</dim>
				</port>
			</input>
			<output>
				<port id="2" names="460" precision="FP32">
					<dim>1</dim>
					<dim>34</dim>
					<dim>129</dim>
					<dim>18</dim>
				</port>
			</output>
		</layer>
		<layer id="112" name="blocks_down.0.bd_out.conv.weight" type="Const" version="opset1">
			<data element_type="f32" offset="276312" shape="32, 34, 3, 3" size="39168"/>
			<output>
				<port id="0" names="blocks_down.0.bd_out.conv.weight" precision="FP32">
					<dim>32</dim>
					<dim>34</dim>
					<dim>3</dim>
					<dim>3</dim>
				</port>
			</output>
		</layer>
		<layer id="113" name="Conv_124/WithoutBiases" type="Convolution" version="opset1">
			<data auto_pad="explicit" dilations="1, 1" pads_begin="1, 0" pads_end="1, 0" strides="1, 1"/>
			<input>
				<port id="0" precision="FP32">
					<dim>1</dim>
					<dim>34</dim>
					<dim>129</dim>
					<dim>18</dim>
				</port>
				<port id="1" precision="FP32">
					<dim>32</dim>
					<dim>34</dim>
					<dim>3</dim>
					<dim>3</dim>
				</port>
			</input>
			<output>
				<port id="2" precision="FP32">
					<dim>1</dim>
					<dim>32</dim>
					<dim>129</dim>
					<dim>16</dim>
				</port>
			</output>
		</layer>
		<layer id="114" name="Conv_124/Dims27454" type="Const" version="opset1">
			<data element_type="f32" offset="315480" shape="1, 32, 1, 1" size="128"/>
			<output>
				<port id="0" precision="FP32">
					<dim>1</dim>
					<dim>32</dim>
					<dim>1</dim>
					<dim>1</dim>
				</port>
			</output>
		</layer>
		<layer id="115" name="Conv_124" type="Add" version="opset1">
			<data auto_broadcast="numpy"/>
			<input>
				<port id="0" precision="FP32">
					<dim>1</dim>
					<dim>32</dim>
					<dim>129</dim>
					<dim>16</dim>
				</port>
				<port id="1" precision="FP32">
					<dim>1</dim>
					<dim>32</dim>
					<dim>1</dim>
					<dim>1</dim>
				</port>
			</input>
			<output>
				<port id="2" names="498" precision="FP32">
					<dim>1</dim>
					<dim>32</dim>
					<dim>129</dim>
					<dim>16</dim>
				</port>
			</output>
		</layer>
		<layer id="116" name="blocks_down.0.sa.linear_qkv.weight" type="Const" version="opset1">
			<data element_type="f32" offset="315608" shape="96, 32, 1, 1" size="12288"/>
			<output>
				<port id="0" names="blocks_down.0.sa.linear_qkv.weight" precision="FP32">
					<dim>96</dim>
					<dim>32</dim>
					<dim>1</dim>
					<dim>1</dim>
				</port>
			</output>
		</layer>
		<layer id="117" name="Conv_134/WithoutBiases" type="Convolution" version="opset1">
			<data auto_pad="explicit" dilations="1, 1" pads_begin="0, 0" pads_end="0, 0" strides="1, 1"/>
			<input>
				<port id="0" precision="FP32">
					<dim>1</dim>
					<dim>32</dim>
					<dim>129</dim>
					<dim>16</dim>
				</port>
				<port id="1" precision="FP32">
					<dim>96</dim>
					<dim>32</dim>
					<dim>1</dim>
					<dim>1</dim>
				</port>
			</input>
			<output>
				<port id="2" precision="FP32">
					<dim>1</dim>
					<dim>96</dim>
					<dim>129</dim>
					<dim>16</dim>
				</port>
			</output>
		</layer>
		<layer id="118" name="Conv_134/Dims27472" type="Const" version="opset1">
			<data element_type="f32" offset="327896" shape="1, 96, 1, 1" size="384"/>
			<output>
				<port id="0" precision="FP32">
					<dim>1</dim>
					<dim>96</dim>
					<dim>1</dim>
					<dim>1</dim>
				</port>
			</output>
		</layer>
		<layer id="119" name="Conv_134" type="Add" version="opset1">
			<data auto_broadcast="numpy"/>
			<input>
				<port id="0" precision="FP32">
					<dim>1</dim>
					<dim>96</dim>
					<dim>129</dim>
					<dim>16</dim>
				</port>
				<port id="1" precision="FP32">
					<dim>1</dim>
					<dim>96</dim>
					<dim>1</dim>
					<dim>1</dim>
				</port>
			</input>
			<output>
				<port id="2" names="508" precision="FP32">
					<dim>1</dim>
					<dim>96</dim>
					<dim>129</dim>
					<dim>16</dim>
				</port>
			</output>
		</layer>
		<layer id="120" name="2838" type="Const" version="opset1">
			<data element_type="i64" offset="328280" shape="4" size="32"/>
			<output>
				<port id="0" precision="I64">
					<dim>4</dim>
				</port>
			</output>
		</layer>
		<layer id="121" name="Transpose_135" type="Transpose" version="opset1">
			<input>
				<port id="0" precision="FP32">
					<dim>1</dim>
					<dim>96</dim>
					<dim>129</dim>
					<dim>16</dim>
				</port>
				<port id="1" precision="I64">
					<dim>4</dim>
				</port>
			</input>
			<output>
				<port id="2" names="509" precision="FP32">
					<dim>1</dim>
					<dim>129</dim>
					<dim>96</dim>
					<dim>16</dim>
				</port>
			</output>
		</layer>
		<layer id="122" name="Split_136/VariadicSplit_input_port_1/value" type="Const" version="opset1">
			<data element_type="i64" offset="8" shape="" size="8"/>
			<output>
				<port id="0" precision="I64"/>
			</output>
		</layer>
		<layer id="123" name="Split_136/VariadicSplit_input_port_2/value" type="Const" version="opset1">
			<data element_type="i64" offset="328312" shape="3" size="24"/>
			<output>
				<port id="0" precision="I64">
					<dim>3</dim>
				</port>
			</output>
		</layer>
		<layer id="124" name="Split_136/VariadicSplit" type="VariadicSplit" version="opset1">
			<input>
				<port id="0" precision="FP32">
					<dim>1</dim>
					<dim>129</dim>
					<dim>96</dim>
					<dim>16</dim>
				</port>
				<port id="1" precision="I64"/>
				<port id="2" precision="I64">
					<dim>3</dim>
				</port>
			</input>
			<output>
				<port id="3" names="510" precision="FP32">
					<dim>1</dim>
					<dim>129</dim>
					<dim>32</dim>
					<dim>16</dim>
				</port>
				<port id="4" names="511" precision="FP32">
					<dim>1</dim>
					<dim>129</dim>
					<dim>32</dim>
					<dim>16</dim>
				</port>
				<port id="5" names="512" precision="FP32">
					<dim>1</dim>
					<dim>129</dim>
					<dim>32</dim>
					<dim>16</dim>
				</port>
			</output>
		</layer>
		<layer id="125" name="Shape_125" type="ShapeOf" version="opset3">
			<data output_type="i64"/>
			<input>
				<port id="0" precision="FP32">
					<dim>1</dim>
					<dim>32</dim>
					<dim>129</dim>
					<dim>16</dim>
				</port>
			</input>
			<output>
				<port id="1" names="499" precision="I64">
					<dim>4</dim>
				</port>
			</output>
		</layer>
		<layer id="126" name="Constant_126" type="Const" version="opset1">
			<data element_type="i32" offset="264208" shape="" size="4"/>
			<output>
				<port id="0" names="500" precision="I32"/>
			</output>
		</layer>
		<layer id="127" name="Gather_127/axis" type="Const" version="opset1">
			<data element_type="i64" offset="264212" shape="" size="8"/>
			<output>
				<port id="0" precision="I64"/>
			</output>
		</layer>
		<layer id="128" name="Gather_1273879" type="Gather" version="opset7">
			<data batch_dims="0"/>
			<input>
				<port id="0" precision="I64">
					<dim>4</dim>
				</port>
				<port id="1" precision="I32"/>
				<port id="2" precision="I64"/>
			</input>
			<output>
				<port id="3" names="501" precision="I64"/>
			</output>
		</layer>
		<layer id="129" name="Shape_131" type="ShapeOf" version="opset3">
			<data output_type="i64"/>
			<input>
				<port id="0" precision="FP32">
					<dim>1</dim>
					<dim>32</dim>
					<dim>129</dim>
					<dim>16</dim>
				</port>
			</input>
			<output>
				<port id="1" names="505" precision="I64">
					<dim>4</dim>
				</port>
			</output>
		</layer>
		<layer id="130" name="Constant_132" type="Const" version="opset1">
			<data element_type="i32" offset="328336" shape="" size="4"/>
			<output>
				<port id="0" names="506" precision="I32"/>
			</output>
		</layer>
		<layer id="131" name="Gather_133/axis" type="Const" version="opset1">
			<data element_type="i64" offset="264212" shape="" size="8"/>
			<output>
				<port id="0" precision="I64"/>
			</output>
		</layer>
		<layer id="132" name="Gather_1333993" type="Gather" version="opset7">
			<data batch_dims="0"/>
			<input>
				<port id="0" precision="I64">
					<dim>4</dim>
				</port>
				<port id="1" precision="I32"/>
				<port id="2" precision="I64"/>
			</input>
			<output>
				<port id="3" names="507" precision="I64"/>
			</output>
		</layer>
		<layer id="133" name="Mul_167" type="Multiply" version="opset1">
			<data auto_broadcast="numpy"/>
			<input>
				<port id="0" precision="I64"/>
				<port id="1" precision="I64"/>
			</input>
			<output>
				<port id="2" names="547" precision="I64"/>
			</output>
		</layer>
		<layer id="134" name="Unsqueeze_168/Dims" type="Const" version="opset1">
			<data element_type="i64" offset="264212" shape="1" size="8"/>
			<output>
				<port id="0" precision="I64">
					<dim>1</dim>
				</port>
			</output>
		</layer>
		<layer id="135" name="Unsqueeze_168/Unsqueeze" type="Unsqueeze" version="opset1">
			<input>
				<port id="0" precision="I64"/>
				<port id="1" precision="I64">
					<dim>1</dim>
				</port>
			</input>
			<output>
				<port id="2" names="550" precision="I64">
					<dim>1</dim>
				</port>
			</output>
		</layer>
		<layer id="136" name="3195" type="Const" version="opset1">
			<data element_type="i64" offset="0" shape="1" size="8"/>
			<output>
				<port id="0" names="3195" precision="I64">
					<dim>1</dim>
				</port>
			</output>
		</layer>
		<layer id="137" name="3196" type="Const" version="opset1">
			<data element_type="i64" offset="328340" shape="1" size="8"/>
			<output>
				<port id="0" names="3196" precision="I64">
					<dim>1</dim>
				</port>
			</output>
		</layer>
		<layer id="138" name="Shape_161" type="ShapeOf" version="opset3">
			<data output_type="i64"/>
			<input>
				<port id="0" precision="FP32">
					<dim>1</dim>
					<dim>129</dim>
					<dim>32</dim>
					<dim>16</dim>
				</port>
			</input>
			<output>
				<port id="1" names="541" precision="I64">
					<dim>4</dim>
				</port>
			</output>
		</layer>
		<layer id="139" name="Constant_162" type="Const" version="opset1">
			<data element_type="i32" offset="264224" shape="" size="4"/>
			<output>
				<port id="0" names="542" precision="I32"/>
			</output>
		</layer>
		<layer id="140" name="Gather_163/axis" type="Const" version="opset1">
			<data element_type="i64" offset="264212" shape="" size="8"/>
			<output>
				<port id="0" precision="I64"/>
			</output>
		</layer>
		<layer id="141" name="Gather_1633945" type="Gather" version="opset7">
			<data batch_dims="0"/>
			<input>
				<port id="0" precision="I64">
					<dim>4</dim>
				</port>
				<port id="1" precision="I32"/>
				<port id="2" precision="I64"/>
			</input>
			<output>
				<port id="3" names="543" precision="I64"/>
			</output>
		</layer>
		<layer id="142" name="Unsqueeze_169/Dims" type="Const" version="opset1">
			<data element_type="i64" offset="264212" shape="1" size="8"/>
			<output>
				<port id="0" precision="I64">
					<dim>1</dim>
				</port>
			</output>
		</layer>
		<layer id="143" name="Unsqueeze_169/Unsqueeze" type="Unsqueeze" version="opset1">
			<input>
				<port id="0" precision="I64"/>
				<port id="1" precision="I64">
					<dim>1</dim>
				</port>
			</input>
			<output>
				<port id="2" names="553" precision="I64">
					<dim>1</dim>
				</port>
			</output>
		</layer>
		<layer id="144" name="Concat_170" type="Concat" version="opset1">
			<data axis="0"/>
			<input>
				<port id="0" precision="I64">
					<dim>1</dim>
				</port>
				<port id="1" precision="I64">
					<dim>1</dim>
				</port>
				<port id="2" precision="I64">
					<dim>1</dim>
				</port>
				<port id="3" precision="I64">
					<dim>1</dim>
				</port>
			</input>
			<output>
				<port id="4" names="554" precision="I64">
					<dim>4</dim>
				</port>
			</output>
		</layer>
		<layer id="145" name="Reshape_171" type="Reshape" version="opset1">
			<data special_zero="true"/>
			<input>
				<port id="0" precision="FP32">
					<dim>1</dim>
					<dim>129</dim>
					<dim>32</dim>
					<dim>16</dim>
				</port>
				<port id="1" precision="I64">
					<dim>4</dim>
				</port>
			</input>
			<output>
				<port id="2" names="555" precision="FP32">
					<dim>129</dim>
					<dim>1</dim>
					<dim>32</dim>
					<dim>16</dim>
				</port>
			</output>
		</layer>
		<layer id="146" name="2901" type="Const" version="opset1">
			<data element_type="i64" offset="328348" shape="4" size="32"/>
			<output>
				<port id="0" precision="I64">
					<dim>4</dim>
				</port>
			</output>
		</layer>
		<layer id="147" name="Transpose_182" type="Transpose" version="opset1">
			<input>
				<port id="0" precision="FP32">
					<dim>129</dim>
					<dim>1</dim>
					<dim>32</dim>
					<dim>16</dim>
				</port>
				<port id="1" precision="I64">
					<dim>4</dim>
				</port>
			</input>
			<output>
				<port id="2" names="574" precision="FP32">
					<dim>129</dim>
					<dim>1</dim>
					<dim>16</dim>
					<dim>32</dim>
				</port>
			</output>
		</layer>
		<layer id="148" name="Concat_137" type="Concat" version="opset1">
			<data axis="3"/>
			<input>
				<port id="0" precision="FP32">
					<dim>1</dim>
					<dim>129</dim>
					<dim>32</dim>
					<dim>32</dim>
				</port>
				<port id="1" precision="FP32">
					<dim>1</dim>
					<dim>129</dim>
					<dim>32</dim>
					<dim>16</dim>
				</port>
			</input>
			<output>
				<port id="2" names="513" precision="FP32">
					<dim>1</dim>
					<dim>129</dim>
					<dim>32</dim>
					<dim>48</dim>
				</port>
			</output>
		</layer>
		<layer id="149" name="Mul_172" type="Multiply" version="opset1">
			<data auto_broadcast="numpy"/>
			<input>
				<port id="0" precision="I64"/>
				<port id="1" precision="I64"/>
			</input>
			<output>
				<port id="2" names="556" precision="I64"/>
			</output>
		</layer>
		<layer id="150" name="Unsqueeze_173/Dims" type="Const" version="opset1">
			<data element_type="i64" offset="264212" shape="1" size="8"/>
			<output>
				<port id="0" precision="I64">
					<dim>1</dim>
				</port>
			</output>
		</layer>
		<layer id="151" name="Unsqueeze_173/Unsqueeze" type="Unsqueeze" version="opset1">
			<input>
				<port id="0" precision="I64"/>
				<port id="1" precision="I64">
					<dim>1</dim>
				</port>
			</input>
			<output>
				<port id="2" names="559" precision="I64">
					<dim>1</dim>
				</port>
			</output>
		</layer>
		<layer id="152" name="3197" type="Const" version="opset1">
			<data element_type="i64" offset="0" shape="1" size="8"/>
			<output>
				<port id="0" names="3197" precision="I64">
					<dim>1</dim>
				</port>
			</output>
		</layer>
		<layer id="153" name="3198" type="Const" version="opset1">
			<data element_type="i64" offset="328340" shape="1" size="8"/>
			<output>
				<port id="0" names="3198" precision="I64">
					<dim>1</dim>
				</port>
			</output>
		</layer>
		<layer id="154" name="Shape_164" type="ShapeOf" version="opset3">
			<data output_type="i64"/>
			<input>
				<port id="0" precision="FP32">
					<dim>1</dim>
					<dim>129</dim>
					<dim>32</dim>
					<dim>48</dim>
				</port>
			</input>
			<output>
				<port id="1" names="544" precision="I64">
					<dim>4</dim>
				</port>
			</output>
		</layer>
		<layer id="155" name="Constant_165" type="Const" version="opset1">
			<data element_type="i32" offset="264224" shape="" size="4"/>
			<output>
				<port id="0" names="545" precision="I32"/>
			</output>
		</layer>
		<layer id="156" name="Gather_166/axis" type="Const" version="opset1">
			<data element_type="i64" offset="264212" shape="" size="8"/>
			<output>
				<port id="0" precision="I64"/>
			</output>
		</layer>
		<layer id="157" name="Gather_1663911" type="Gather" version="opset7">
			<data batch_dims="0"/>
			<input>
				<port id="0" precision="I64">
					<dim>4</dim>
				</port>
				<port id="1" precision="I32"/>
				<port id="2" precision="I64"/>
			</input>
			<output>
				<port id="3" names="546" precision="I64"/>
			</output>
		</layer>
		<layer id="158" name="Unsqueeze_174/Dims" type="Const" version="opset1">
			<data element_type="i64" offset="264212" shape="1" size="8"/>
			<output>
				<port id="0" precision="I64">
					<dim>1</dim>
				</port>
			</output>
		</layer>
		<layer id="159" name="Unsqueeze_174/Unsqueeze" type="Unsqueeze" version="opset1">
			<input>
				<port id="0" precision="I64"/>
				<port id="1" precision="I64">
					<dim>1</dim>
				</port>
			</input>
			<output>
				<port id="2" names="562" precision="I64">
					<dim>1</dim>
				</port>
			</output>
		</layer>
		<layer id="160" name="Concat_175" type="Concat" version="opset1">
			<data axis="0"/>
			<input>
				<port id="0" precision="I64">
					<dim>1</dim>
				</port>
				<port id="1" precision="I64">
					<dim>1</dim>
				</port>
				<port id="2" precision="I64">
					<dim>1</dim>
				</port>
				<port id="3" precision="I64">
					<dim>1</dim>
				</port>
			</input>
			<output>
				<port id="4" names="563" precision="I64">
					<dim>4</dim>
				</port>
			</output>
		</layer>
		<layer id="161" name="Reshape_176" type="Reshape" version="opset1">
			<data special_zero="true"/>
			<input>
				<port id="0" precision="FP32">
					<dim>1</dim>
					<dim>129</dim>
					<dim>32</dim>
					<dim>48</dim>
				</port>
				<port id="1" precision="I64">
					<dim>4</dim>
				</port>
			</input>
			<output>
				<port id="2" precision="FP32">
					<dim>129</dim>
					<dim>1</dim>
					<dim>32</dim>
					<dim>48</dim>
				</port>
			</output>
		</layer>
		<layer id="162" name="Div_188_copy/const58814" type="Const" version="opset1">
			<data element_type="f32" offset="328380" shape="1, 1, 1, 1" size="4"/>
			<output>
				<port id="0" precision="FP32">
					<dim>1</dim>
					<dim>1</dim>
					<dim>1</dim>
					<dim>1</dim>
				</port>
			</output>
		</layer>
		<layer id="163" name="Div_188_copy" type="Multiply" version="opset1">
			<data auto_broadcast="numpy"/>
			<input>
				<port id="0" precision="FP32">
					<dim>129</dim>
					<dim>1</dim>
					<dim>32</dim>
					<dim>48</dim>
				</port>
				<port id="1" precision="FP32">
					<dim>1</dim>
					<dim>1</dim>
					<dim>1</dim>
					<dim>1</dim>
				</port>
			</input>
			<output>
				<port id="2" names="564" precision="FP32">
					<dim>129</dim>
					<dim>1</dim>
					<dim>32</dim>
					<dim>48</dim>
				</port>
			</output>
		</layer>
		<layer id="164" name="MatMul_186" type="MatMul" version="opset1">
			<data transpose_a="false" transpose_b="false"/>
			<input>
				<port id="0" precision="FP32">
					<dim>129</dim>
					<dim>1</dim>
					<dim>16</dim>
					<dim>32</dim>
				</port>
				<port id="1" precision="FP32">
					<dim>129</dim>
					<dim>1</dim>
					<dim>32</dim>
					<dim>48</dim>
				</port>
			</input>
			<output>
				<port id="2" names="580" precision="FP32">
					<dim>129</dim>
					<dim>1</dim>
					<dim>16</dim>
					<dim>48</dim>
				</port>
			</output>
		</layer>
		<layer id="165" name="ConstantOfShape_193/Broadcast/FillValue" type="Const" version="opset1">
			<data element_type="f32" offset="328384" shape="1" size="4"/>
			<output>
				<port id="0" precision="FP32">
					<dim>1</dim>
				</port>
			</output>
		</layer>
		<layer id="166" name="Constant_189" type="Const" version="opset1">
			<data element_type="i64" offset="264212" shape="" size="8"/>
			<output>
				<port id="0" names="581" precision="I64"/>
			</output>
		</layer>
		<layer id="167" name="Sub_190" type="Subtract" version="opset1">
			<data auto_broadcast="numpy"/>
			<input>
				<port id="0" precision="I64"/>
				<port id="1" precision="I64"/>
			</input>
			<output>
				<port id="2" names="582" precision="I64"/>
			</output>
		</layer>
		<layer id="168" name="Unsqueeze_191/Dims" type="Const" version="opset1">
			<data element_type="i64" offset="264212" shape="1" size="8"/>
			<output>
				<port id="0" precision="I64">
					<dim>1</dim>
				</port>
			</output>
		</layer>
		<layer id="169" name="Unsqueeze_191/Unsqueeze" type="Unsqueeze" version="opset1">
			<input>
				<port id="0" precision="I64"/>
				<port id="1" precision="I64">
					<dim>1</dim>
				</port>
			</input>
			<output>
				<port id="2" names="584" precision="I64">
					<dim>1</dim>
				</port>
			</output>
		</layer>
		<layer id="170" name="3201" type="Const" version="opset1">
			<data element_type="i64" offset="328388" shape="1" size="8"/>
			<output>
				<port id="0" names="3201" precision="I64">
					<dim>1</dim>
				</port>
			</output>
		</layer>
		<layer id="171" name="Concat_192" type="Concat" version="opset1">
			<data axis="0"/>
			<input>
				<port id="0" precision="I64">
					<dim>1</dim>
				</port>
				<port id="1" precision="I64">
					<dim>1</dim>
				</port>
			</input>
			<output>
				<port id="2" names="586" precision="I64">
					<dim>2</dim>
				</port>
			</output>
		</layer>
		<layer id="172" name="ConstantOfShape_193/Broadcast" type="Broadcast" version="opset3">
			<data mode="numpy"/>
			<input>
				<port id="0" precision="FP32">
					<dim>1</dim>
				</port>
				<port id="1" precision="I64">
					<dim>2</dim>
				</port>
			</input>
			<output>
				<port id="2" names="587" precision="FP32">
					<dim>16</dim>
					<dim>33</dim>
				</port>
			</output>
		</layer>
		<layer id="173" name="3203" type="Const" version="opset1">
			<data element_type="i64" offset="264212" shape="1" size="8"/>
			<output>
				<port id="0" names="3203" precision="I64">
					<dim>1</dim>
				</port>
			</output>
		</layer>
		<layer id="174" name="Unsqueeze_196/Dims" type="Const" version="opset1">
			<data element_type="i64" offset="264212" shape="1" size="8"/>
			<output>
				<port id="0" precision="I64">
					<dim>1</dim>
				</port>
			</output>
		</layer>
		<layer id="175" name="Unsqueeze_196/Unsqueeze" type="Unsqueeze" version="opset1">
			<input>
				<port id="0" precision="I64"/>
				<port id="1" precision="I64">
					<dim>1</dim>
				</port>
			</input>
			<output>
				<port id="2" names="593" precision="I64">
					<dim>1</dim>
				</port>
			</output>
		</layer>
		<layer id="176" name="Concat_197" type="Concat" version="opset1">
			<data axis="0"/>
			<input>
				<port id="0" precision="I64">
					<dim>1</dim>
				</port>
				<port id="1" precision="I64">
					<dim>1</dim>
				</port>
			</input>
			<output>
				<port id="2" names="594,602" precision="I64">
					<dim>2</dim>
				</port>
			</output>
		</layer>
		<layer id="177" name="ConstantOfShape_203/Broadcast/FillValue" type="Const" version="opset1">
			<data element_type="i64" offset="264212" shape="1" size="8"/>
			<output>
				<port id="0" precision="I64">
					<dim>1</dim>
				</port>
			</output>
		</layer>
		<layer id="178" name="3204" type="Const" version="opset1">
			<data element_type="i64" offset="328396" shape="1" size="8"/>
			<output>
				<port id="0" names="3204" precision="I64">
					<dim>1</dim>
				</port>
			</output>
		</layer>
		<layer id="179" name="3202" type="Const" version="opset1">
			<data element_type="i64" offset="264212" shape="1" size="8"/>
			<output>
				<port id="0" names="3202" precision="I64">
					<dim>1</dim>
				</port>
			</output>
		</layer>
		<layer id="180" name="Unsqueeze_194/Dims" type="Const" version="opset1">
			<data element_type="i64" offset="264212" shape="1" size="8"/>
			<output>
				<port id="0" precision="I64">
					<dim>1</dim>
				</port>
			</output>
		</layer>
		<layer id="181" name="Unsqueeze_194/Unsqueeze" type="Unsqueeze" version="opset1">
			<input>
				<port id="0" precision="I64"/>
				<port id="1" precision="I64">
					<dim>1</dim>
				</port>
			</input>
			<output>
				<port id="2" names="590" precision="I64">
					<dim>1</dim>
				</port>
			</output>
		</layer>
		<layer id="182" name="Concat_195" type="Concat" version="opset1">
			<data axis="0"/>
			<input>
				<port id="0" precision="I64">
					<dim>1</dim>
				</port>
				<port id="1" precision="I64">
					<dim>1</dim>
				</port>
			</input>
			<output>
				<port id="2" names="591" precision="I64">
					<dim>2</dim>
				</port>
			</output>
		</layer>
		<layer id="183" name="Shape_199" type="ShapeOf" version="opset3">
			<data output_type="i64"/>
			<input>
				<port id="0" precision="I64">
					<dim>2</dim>
				</port>
			</input>
			<output>
				<port id="1" names="596" precision="I64">
					<dim>1</dim>
				</port>
			</output>
		</layer>
		<layer id="184" name="Constant_198" type="Const" version="opset1">
			<data element_type="i32" offset="264208" shape="1" size="4"/>
			<output>
				<port id="0" names="595" precision="I32">
					<dim>1</dim>
				</port>
			</output>
		</layer>
		<layer id="185" name="Gather_200/axis" type="Const" version="opset1">
			<data element_type="i64" offset="264212" shape="" size="8"/>
			<output>
				<port id="0" precision="I64"/>
			</output>
		</layer>
		<layer id="186" name="Gather_2003841" type="Gather" version="opset7">
			<data batch_dims="0"/>
			<input>
				<port id="0" precision="I64">
					<dim>1</dim>
				</port>
				<port id="1" precision="I32">
					<dim>1</dim>
				</port>
				<port id="2" precision="I64"/>
			</input>
			<output>
				<port id="3" names="597" precision="I64">
					<dim>1</dim>
				</port>
			</output>
		</layer>
		<layer id="187" name="Sub_201" type="Subtract" version="opset1">
			<data auto_broadcast="numpy"/>
			<input>
				<port id="0" precision="I64">
					<dim>1</dim>
				</port>
				<port id="1" precision="I64">
					<dim>1</dim>
				</port>
			</input>
			<output>
				<port id="2" names="601" precision="I64">
					<dim>1</dim>
				</port>
			</output>
		</layer>
		<layer id="188" name="ConstantOfShape_203/Broadcast" type="Broadcast" version="opset3">
			<data mode="numpy"/>
			<input>
				<port id="0" precision="I64">
					<dim>1</dim>
				</port>
				<port id="1" precision="I64">
					<dim>1</dim>
				</port>
			</input>
			<output>
				<port id="2" names="603" precision="I64">
					<dim>2</dim>
				</port>
			</output>
		</layer>
		<layer id="189" name="Concat_204" type="Concat" version="opset1">
			<data axis="0"/>
			<input>
				<port id="0" precision="I64">
					<dim>2</dim>
				</port>
				<port id="1" precision="I64">
					<dim>2</dim>
				</port>
			</input>
			<output>
				<port id="2" names="604" precision="I64">
					<dim>4</dim>
				</port>
			</output>
		</layer>
		<layer id="190" name="Constant_205" type="Const" version="opset1">
			<data element_type="i64" offset="328404" shape="2" size="16"/>
			<output>
				<port id="0" names="605" precision="I64">
					<dim>2</dim>
				</port>
			</output>
		</layer>
		<layer id="191" name="Reshape_206" type="Reshape" version="opset1">
			<data special_zero="true"/>
			<input>
				<port id="0" precision="I64">
					<dim>4</dim>
				</port>
				<port id="1" precision="I64">
					<dim>2</dim>
				</port>
			</input>
			<output>
				<port id="2" names="606" precision="I64">
					<dim>2</dim>
					<dim>2</dim>
				</port>
			</output>
		</layer>
		<layer id="192" name="Slice_211/Concat29330140632" type="Const" version="opset1">
			<data element_type="i64" offset="328420" shape="2" size="16"/>
			<output>
				<port id="0" precision="I64">
					<dim>2</dim>
				</port>
			</output>
		</layer>
		<layer id="193" name="Slice_211/Concat2931829331139621" type="Const" version="opset1">
			<data element_type="i64" offset="328436" shape="2" size="16"/>
			<output>
				<port id="0" precision="I64">
					<dim>2</dim>
				</port>
			</output>
		</layer>
		<layer id="194" name="Slice_211/Strides29332143548" type="Const" version="opset1">
			<data element_type="i64" offset="328452" shape="2" size="16"/>
			<output>
				<port id="0" precision="I64">
					<dim>2</dim>
				</port>
			</output>
		</layer>
		<layer id="195" name="Slice_211" type="StridedSlice" version="opset1">
			<data begin_mask="0, 1" ellipsis_mask="0, 0" end_mask="0, 1" new_axis_mask="0, 0" shrink_axis_mask="0, 0"/>
			<input>
				<port id="0" precision="I64">
					<dim>2</dim>
					<dim>2</dim>
				</port>
				<port id="1" precision="I64">
					<dim>2</dim>
				</port>
				<port id="2" precision="I64">
					<dim>2</dim>
				</port>
				<port id="3" precision="I64">
					<dim>2</dim>
				</port>
			</input>
			<output>
				<port id="4" names="611" precision="I64">
					<dim>2</dim>
					<dim>2</dim>
				</port>
			</output>
		</layer>
		<layer id="196" name="2892" type="Const" version="opset1">
			<data element_type="i64" offset="328468" shape="2" size="16"/>
			<output>
				<port id="0" precision="I64">
					<dim>2</dim>
				</port>
			</output>
		</layer>
		<layer id="197" name="Transpose_212" type="Transpose" version="opset1">
			<input>
				<port id="0" precision="I64">
					<dim>2</dim>
					<dim>2</dim>
				</port>
				<port id="1" precision="I64">
					<dim>2</dim>
				</port>
			</input>
			<output>
				<port id="2" names="612" precision="I64">
					<dim>2</dim>
					<dim>2</dim>
				</port>
			</output>
		</layer>
		<layer id="198" name="Constant_213" type="Const" version="opset1">
			<data element_type="i64" offset="328484" shape="1" size="8"/>
			<output>
				<port id="0" names="613" precision="I64">
					<dim>1</dim>
				</port>
			</output>
		</layer>
		<layer id="199" name="Reshape_214" type="Reshape" version="opset1">
			<data special_zero="true"/>
			<input>
				<port id="0" precision="I64">
					<dim>2</dim>
					<dim>2</dim>
				</port>
				<port id="1" precision="I64">
					<dim>1</dim>
				</port>
			</input>
			<output>
				<port id="2" names="614,615" precision="I64">
					<dim>4</dim>
				</port>
			</output>
		</layer>
		<layer id="200" name="3442_input_port_1/value" type="Const" version="opset1">
			<data element_type="i64" offset="264212" shape="" size="8"/>
			<output>
				<port id="0" precision="I64"/>
			</output>
		</layer>
		<layer id="201" name="3442" type="Split" version="opset1">
			<data num_splits="2"/>
			<input>
				<port id="0" precision="I64">
					<dim>4</dim>
				</port>
				<port id="1" precision="I64"/>
			</input>
			<output>
				<port id="2" precision="I64">
					<dim>2</dim>
				</port>
				<port id="3" precision="I64">
					<dim>2</dim>
				</port>
			</output>
		</layer>
		<layer id="202" name="Constant_216" type="Const" version="opset1">
			<data element_type="f32" offset="264208" shape="" size="4"/>
			<output>
				<port id="0" names="616" precision="FP32"/>
			</output>
		</layer>
		<layer id="203" name="Pad_217" type="Pad" version="opset1">
			<data pad_mode="constant"/>
			<input>
				<port id="0" precision="FP32">
					<dim>16</dim>
					<dim>33</dim>
				</port>
				<port id="1" precision="I64">
					<dim>2</dim>
				</port>
				<port id="2" precision="I64">
					<dim>2</dim>
				</port>
				<port id="3" precision="FP32"/>
			</input>
			<output>
				<port id="4" names="617" precision="FP32">
					<dim>16</dim>
					<dim>49</dim>
				</port>
			</output>
		</layer>
		<layer id="204" name="Constant_218" type="Const" version="opset1">
			<data element_type="i64" offset="328484" shape="1" size="8"/>
			<output>
				<port id="0" names="618" precision="I64">
					<dim>1</dim>
				</port>
			</output>
		</layer>
		<layer id="205" name="Reshape_219" type="Reshape" version="opset1">
			<data special_zero="true"/>
			<input>
				<port id="0" precision="FP32">
					<dim>16</dim>
					<dim>49</dim>
				</port>
				<port id="1" precision="I64">
					<dim>1</dim>
				</port>
			</input>
			<output>
				<port id="2" names="619" precision="FP32">
					<dim>784</dim>
				</port>
			</output>
		</layer>
		<layer id="206" name="Slice_227/Concat29366142840" type="Const" version="opset1">
			<data element_type="i64" offset="264212" shape="1" size="8"/>
			<output>
				<port id="0" precision="I64">
					<dim>1</dim>
				</port>
			</output>
		</layer>
		<layer id="207" name="Constant_220" type="Const" version="opset1">
			<data element_type="i64" offset="328388" shape="" size="8"/>
			<output>
				<port id="0" names="620" precision="I64"/>
			</output>
		</layer>
		<layer id="208" name="Add_221" type="Add" version="opset1">
			<data auto_broadcast="numpy"/>
			<input>
				<port id="0" precision="I64"/>
				<port id="1" precision="I64"/>
			</input>
			<output>
				<port id="2" names="621" precision="I64"/>
			</output>
		</layer>
		<layer id="209" name="Constant_222" type="Const" version="opset1">
			<data element_type="i64" offset="0" shape="" size="8"/>
			<output>
				<port id="0" names="622" precision="I64"/>
			</output>
		</layer>
		<layer id="210" name="Sub_223" type="Subtract" version="opset1">
			<data auto_broadcast="numpy"/>
			<input>
				<port id="0" precision="I64"/>
				<port id="1" precision="I64"/>
			</input>
			<output>
				<port id="2" names="623" precision="I64"/>
			</output>
		</layer>
		<layer id="211" name="Mul_224" type="Multiply" version="opset1">
			<data auto_broadcast="numpy"/>
			<input>
				<port id="0" precision="I64"/>
				<port id="1" precision="I64"/>
			</input>
			<output>
				<port id="2" names="624" precision="I64"/>
			</output>
		</layer>
		<layer id="212" name="Unsqueeze_225/Dims" type="Const" version="opset1">
			<data element_type="i64" offset="264212" shape="1" size="8"/>
			<output>
				<port id="0" precision="I64">
					<dim>1</dim>
				</port>
			</output>
		</layer>
		<layer id="213" name="Unsqueeze_225/Unsqueeze" type="Unsqueeze" version="opset1">
			<input>
				<port id="0" precision="I64"/>
				<port id="1" precision="I64">
					<dim>1</dim>
				</port>
			</input>
			<output>
				<port id="2" names="628" precision="I64">
					<dim>1</dim>
				</port>
			</output>
		</layer>
		<layer id="214" name="Slice_227/Clamp29349" type="Clamp" version="opset1">
			<data max="2147483647" min="-2147483648"/>
			<input>
				<port id="0" precision="I64">
					<dim>1</dim>
				</port>
			</input>
			<output>
				<port id="1" precision="I64">
					<dim>1</dim>
				</port>
			</output>
		</layer>
		<layer id="215" name="Slice_227/Gather29357_input_port_1/value29359141793" type="Const" version="opset1">
			<data element_type="i32" offset="264208" shape="1" size="4"/>
			<output>
				<port id="0" precision="I32">
					<dim>1</dim>
				</port>
			</output>
		</layer>
		<layer id="216" name="Slice_227/Gather29357_input_port_2/value29361139807" type="Const" version="opset1">
			<data element_type="i64" offset="264212" shape="" size="8"/>
			<output>
				<port id="0" precision="I64"/>
			</output>
		</layer>
		<layer id="217" name="Slice_227/Gather29357" type="Gather" version="opset7">
			<data batch_dims="0"/>
			<input>
				<port id="0" precision="I64">
					<dim>1</dim>
				</port>
				<port id="1" precision="I32">
					<dim>1</dim>
				</port>
				<port id="2" precision="I64"/>
			</input>
			<output>
				<port id="3" precision="I64">
					<dim>1</dim>
				</port>
			</output>
		</layer>
		<layer id="218" name="Slice_227/Strides29368139633" type="Const" version="opset1">
			<data element_type="i64" offset="0" shape="1" size="8"/>
			<output>
				<port id="0" precision="I64">
					<dim>1</dim>
				</port>
			</output>
		</layer>
		<layer id="219" name="Slice_227" type="StridedSlice" version="opset1">
			<data begin_mask="0" ellipsis_mask="0" end_mask="0" new_axis_mask="0" shrink_axis_mask="0"/>
			<input>
				<port id="0" precision="FP32">
					<dim>784</dim>
				</port>
				<port id="1" precision="I64">
					<dim>1</dim>
				</port>
				<port id="2" precision="I64">
					<dim>1</dim>
				</port>
				<port id="3" precision="I64">
					<dim>1</dim>
				</port>
			</input>
			<output>
				<port id="4" names="631" precision="FP32">
					<dim>768</dim>
				</port>
			</output>
		</layer>
		<layer id="220" name="Unsqueeze_232/Dims" type="Const" version="opset1">
			<data element_type="i64" offset="264212" shape="1" size="8"/>
			<output>
				<port id="0" precision="I64">
					<dim>1</dim>
				</port>
			</output>
		</layer>
		<layer id="221" name="Unsqueeze_232/Unsqueeze" type="Unsqueeze" version="opset1">
			<input>
				<port id="0" precision="I64"/>
				<port id="1" precision="I64">
					<dim>1</dim>
				</port>
			</input>
			<output>
				<port id="2" names="636" precision="I64">
					<dim>1</dim>
				</port>
			</output>
		</layer>
		<layer id="222" name="Constant_228" type="Const" version="opset1">
			<data element_type="i64" offset="328388" shape="" size="8"/>
			<output>
				<port id="0" names="632" precision="I64"/>
			</output>
		</layer>
		<layer id="223" name="Add_229" type="Add" version="opset1">
			<data auto_broadcast="numpy"/>
			<input>
				<port id="0" precision="I64"/>
				<port id="1" precision="I64"/>
			</input>
			<output>
				<port id="2" names="633" precision="I64"/>
			</output>
		</layer>
		<layer id="224" name="Constant_230" type="Const" version="opset1">
			<data element_type="i64" offset="0" shape="" size="8"/>
			<output>
				<port id="0" names="634" precision="I64"/>
			</output>
		</layer>
		<layer id="225" name="Sub_231" type="Subtract" version="opset1">
			<data auto_broadcast="numpy"/>
			<input>
				<port id="0" precision="I64"/>
				<port id="1" precision="I64"/>
			</input>
			<output>
				<port id="2" names="635" precision="I64"/>
			</output>
		</layer>
		<layer id="226" name="Unsqueeze_233/Dims" type="Const" version="opset1">
			<data element_type="i64" offset="264212" shape="1" size="8"/>
			<output>
				<port id="0" precision="I64">
					<dim>1</dim>
				</port>
			</output>
		</layer>
		<layer id="227" name="Unsqueeze_233/Unsqueeze" type="Unsqueeze" version="opset1">
			<input>
				<port id="0" precision="I64"/>
				<port id="1" precision="I64">
					<dim>1</dim>
				</port>
			</input>
			<output>
				<port id="2" names="637" precision="I64">
					<dim>1</dim>
				</port>
			</output>
		</layer>
		<layer id="228" name="Concat_234" type="Concat" version="opset1">
			<data axis="0"/>
			<input>
				<port id="0" precision="I64">
					<dim>1</dim>
				</port>
				<port id="1" precision="I64">
					<dim>1</dim>
				</port>
			</input>
			<output>
				<port id="2" names="638" precision="I64">
					<dim>2</dim>
				</port>
			</output>
		</layer>
		<layer id="229" name="Reshape_235" type="Reshape" version="opset1">
			<data special_zero="true"/>
			<input>
				<port id="0" precision="FP32">
					<dim>768</dim>
				</port>
				<port id="1" precision="I64">
					<dim>2</dim>
				</port>
			</input>
			<output>
				<port id="2" names="639" precision="FP32">
					<dim>16</dim>
					<dim>48</dim>
				</port>
			</output>
		</layer>
		<layer id="230" name="Slice_240/Concat29406142168" type="Const" version="opset1">
			<data element_type="i64" offset="328492" shape="2" size="16"/>
			<output>
				<port id="0" precision="I64">
					<dim>2</dim>
				</port>
			</output>
		</layer>
		<layer id="231" name="Slice_240/Const2940229403141958" type="Const" version="opset1">
			<data element_type="i64" offset="264212" shape="1" size="8"/>
			<output>
				<port id="0" precision="I64">
					<dim>1</dim>
				</port>
			</output>
		</layer>
		<layer id="232" name="Constant_184" type="Const" version="opset1">
			<data element_type="i64" offset="328340" shape="" size="8"/>
			<output>
				<port id="0" names="576" precision="I64"/>
			</output>
		</layer>
		<layer id="233" name="Add_185" type="Add" version="opset1">
			<data auto_broadcast="numpy"/>
			<input>
				<port id="0" precision="I64"/>
				<port id="1" precision="I64"/>
			</input>
			<output>
				<port id="2" names="577" precision="I64"/>
			</output>
		</layer>
		<layer id="234" name="Constant_236" type="Const" version="opset1">
			<data element_type="i64" offset="264212" shape="" size="8"/>
			<output>
				<port id="0" names="640" precision="I64"/>
			</output>
		</layer>
		<layer id="235" name="Sub_237" type="Subtract" version="opset1">
			<data auto_broadcast="numpy"/>
			<input>
				<port id="0" precision="I64"/>
				<port id="1" precision="I64"/>
			</input>
			<output>
				<port id="2" names="641" precision="I64"/>
			</output>
		</layer>
		<layer id="236" name="Unsqueeze_238/Dims" type="Const" version="opset1">
			<data element_type="i64" offset="264212" shape="1" size="8"/>
			<output>
				<port id="0" precision="I64">
					<dim>1</dim>
				</port>
			</output>
		</layer>
		<layer id="237" name="Unsqueeze_238/Unsqueeze" type="Unsqueeze" version="opset1">
			<input>
				<port id="0" precision="I64"/>
				<port id="1" precision="I64">
					<dim>1</dim>
				</port>
			</input>
			<output>
				<port id="2" names="645" precision="I64">
					<dim>1</dim>
				</port>
			</output>
		</layer>
		<layer id="238" name="Slice_240/Clamp29387" type="Clamp" version="opset1">
			<data max="2147483647" min="-2147483648"/>
			<input>
				<port id="0" precision="I64">
					<dim>1</dim>
				</port>
			</input>
			<output>
				<port id="1" precision="I64">
					<dim>1</dim>
				</port>
			</output>
		</layer>
		<layer id="239" name="Slice_240/Gather29395_input_port_1/value29397139117" type="Const" version="opset1">
			<data element_type="i32" offset="264208" shape="1" size="4"/>
			<output>
				<port id="0" precision="I32">
					<dim>1</dim>
				</port>
			</output>
		</layer>
		<layer id="240" name="Slice_240/Gather29395_input_port_2/value29399141406" type="Const" version="opset1">
			<data element_type="i64" offset="264212" shape="" size="8"/>
			<output>
				<port id="0" precision="I64"/>
			</output>
		</layer>
		<layer id="241" name="Slice_240/Gather29395" type="Gather" version="opset7">
			<data batch_dims="0"/>
			<input>
				<port id="0" precision="I64">
					<dim>1</dim>
				</port>
				<port id="1" precision="I32">
					<dim>1</dim>
				</port>
				<port id="2" precision="I64"/>
			</input>
			<output>
				<port id="3" precision="I64">
					<dim>1</dim>
				</port>
			</output>
		</layer>
		<layer id="242" name="Slice_240/End" type="Concat" version="opset1">
			<data axis="0"/>
			<input>
				<port id="0" precision="I64">
					<dim>1</dim>
				</port>
				<port id="1" precision="I64">
					<dim>1</dim>
				</port>
			</input>
			<output>
				<port id="2" precision="I64">
					<dim>2</dim>
				</port>
			</output>
		</layer>
		<layer id="243" name="Slice_240/Strides29408143911" type="Const" version="opset1">
			<data element_type="i64" offset="328508" shape="2" size="16"/>
			<output>
				<port id="0" precision="I64">
					<dim>2</dim>
				</port>
			</output>
		</layer>
		<layer id="244" name="Slice_240" type="StridedSlice" version="opset1">
			<data begin_mask="1, 0" ellipsis_mask="0, 0" end_mask="1, 0" new_axis_mask="0, 0" shrink_axis_mask="0, 0"/>
			<input>
				<port id="0" precision="FP32">
					<dim>16</dim>
					<dim>48</dim>
				</port>
				<port id="1" precision="I64">
					<dim>2</dim>
				</port>
				<port id="2" precision="I64">
					<dim>2</dim>
				</port>
				<port id="3" precision="I64">
					<dim>2</dim>
				</port>
			</input>
			<output>
				<port id="4" names="648" precision="FP32">
					<dim>16</dim>
					<dim>48</dim>
				</port>
			</output>
		</layer>
		<layer id="245" name="Unsqueeze_241/Dims" type="Const" version="opset1">
			<data element_type="i64" offset="264212" shape="1" size="8"/>
			<output>
				<port id="0" precision="I64">
					<dim>1</dim>
				</port>
			</output>
		</layer>
		<layer id="246" name="Unsqueeze_241/Unsqueeze" type="Unsqueeze" version="opset1">
			<input>
				<port id="0" precision="FP32">
					<dim>16</dim>
					<dim>48</dim>
				</port>
				<port id="1" precision="I64">
					<dim>1</dim>
				</port>
			</input>
			<output>
				<port id="2" names="649" precision="FP32">
					<dim>1</dim>
					<dim>16</dim>
					<dim>48</dim>
				</port>
			</output>
		</layer>
		<layer id="247" name="Unsqueeze_242/Dims" type="Const" version="opset1">
			<data element_type="i64" offset="264212" shape="1" size="8"/>
			<output>
				<port id="0" precision="I64">
					<dim>1</dim>
				</port>
			</output>
		</layer>
		<layer id="248" name="Unsqueeze_242/Unsqueeze" type="Unsqueeze" version="opset1">
			<input>
				<port id="0" precision="FP32">
					<dim>1</dim>
					<dim>16</dim>
					<dim>48</dim>
				</port>
				<port id="1" precision="I64">
					<dim>1</dim>
				</port>
			</input>
			<output>
				<port id="2" names="650" precision="FP32">
					<dim>1</dim>
					<dim>1</dim>
					<dim>16</dim>
					<dim>48</dim>
				</port>
			</output>
		</layer>
		<layer id="249" name="Mul_243" type="Multiply" version="opset1">
			<data auto_broadcast="numpy"/>
			<input>
				<port id="0" precision="FP32">
					<dim>129</dim>
					<dim>1</dim>
					<dim>16</dim>
					<dim>48</dim>
				</port>
				<port id="1" precision="FP32">
					<dim>1</dim>
					<dim>1</dim>
					<dim>16</dim>
					<dim>48</dim>
				</port>
			</input>
			<output>
				<port id="2" names="651" precision="FP32">
					<dim>129</dim>
					<dim>1</dim>
					<dim>16</dim>
					<dim>48</dim>
				</port>
			</output>
		</layer>
		<layer id="250" name="Constant_244" type="Const" version="opset1">
			<data element_type="f32" offset="328384" shape="1, 1, 1, 1" size="4"/>
			<output>
				<port id="0" names="652" precision="FP32">
					<dim>1</dim>
					<dim>1</dim>
					<dim>1</dim>
					<dim>1</dim>
				</port>
			</output>
		</layer>
		<layer id="251" name="Sub_245" type="Subtract" version="opset1">
			<data auto_broadcast="numpy"/>
			<input>
				<port id="0" precision="FP32">
					<dim>1</dim>
					<dim>1</dim>
					<dim>1</dim>
					<dim>1</dim>
				</port>
				<port id="1" precision="FP32">
					<dim>1</dim>
					<dim>1</dim>
					<dim>16</dim>
					<dim>48</dim>
				</port>
			</input>
			<output>
				<port id="2" names="653" precision="FP32">
					<dim>1</dim>
					<dim>1</dim>
					<dim>16</dim>
					<dim>48</dim>
				</port>
			</output>
		</layer>
		<layer id="252" name="Constant_246" type="Const" version="opset1">
			<data element_type="f32" offset="328524" shape="1, 1, 1, 1" size="4"/>
			<output>
				<port id="0" names="654" precision="FP32">
					<dim>1</dim>
					<dim>1</dim>
					<dim>1</dim>
					<dim>1</dim>
				</port>
			</output>
		</layer>
		<layer id="253" name="Mul_247" type="Multiply" version="opset1">
			<data auto_broadcast="numpy"/>
			<input>
				<port id="0" precision="FP32">
					<dim>1</dim>
					<dim>1</dim>
					<dim>16</dim>
					<dim>48</dim>
				</port>
				<port id="1" precision="FP32">
					<dim>1</dim>
					<dim>1</dim>
					<dim>1</dim>
					<dim>1</dim>
				</port>
			</input>
			<output>
				<port id="2" names="655" precision="FP32">
					<dim>1</dim>
					<dim>1</dim>
					<dim>16</dim>
					<dim>48</dim>
				</port>
			</output>
		</layer>
		<layer id="254" name="Add_248" type="Add" version="opset1">
			<data auto_broadcast="numpy"/>
			<input>
				<port id="0" precision="FP32">
					<dim>129</dim>
					<dim>1</dim>
					<dim>16</dim>
					<dim>48</dim>
				</port>
				<port id="1" precision="FP32">
					<dim>1</dim>
					<dim>1</dim>
					<dim>16</dim>
					<dim>48</dim>
				</port>
			</input>
			<output>
				<port id="2" names="656" precision="FP32">
					<dim>129</dim>
					<dim>1</dim>
					<dim>16</dim>
					<dim>48</dim>
				</port>
			</output>
		</layer>
		<layer id="255" name="Softmax_249/FlattenONNX_/input_shape" type="ShapeOf" version="opset3">
			<data output_type="i64"/>
			<input>
				<port id="0" precision="FP32">
					<dim>129</dim>
					<dim>1</dim>
					<dim>16</dim>
					<dim>48</dim>
				</port>
			</input>
			<output>
				<port id="1" precision="I64">
					<dim>4</dim>
				</port>
			</output>
		</layer>
		<layer id="256" name="Softmax_249/FlattenONNX_/input_shape/Indices" type="Const" version="opset1">
			<data element_type="i32" offset="328528" shape="3" size="12"/>
			<output>
				<port id="0" precision="I32">
					<dim>3</dim>
				</port>
			</output>
		</layer>
		<layer id="257" name="Softmax_249/FlattenONNX_/input_shape/Axis" type="Const" version="opset1">
			<data element_type="i64" offset="264212" shape="" size="8"/>
			<output>
				<port id="0" precision="I64"/>
			</output>
		</layer>
		<layer id="258" name="Softmax_249/FlattenONNX_/input_shape/Gather" type="Gather" version="opset7">
			<data batch_dims="0"/>
			<input>
				<port id="0" precision="I64">
					<dim>4</dim>
				</port>
				<port id="1" precision="I32">
					<dim>3</dim>
				</port>
				<port id="2" precision="I64"/>
			</input>
			<output>
				<port id="3" precision="I64">
					<dim>3</dim>
				</port>
			</output>
		</layer>
		<layer id="259" name="Softmax_249/FlattenONNX_/first_dims/value" type="Const" version="opset1">
			<data element_type="i64" offset="264212" shape="1" size="8"/>
			<output>
				<port id="0" precision="I64">
					<dim>1</dim>
				</port>
			</output>
		</layer>
		<layer id="260" name="Softmax_249/FlattenONNX_/first_dims" type="ReduceProd" version="opset1">
			<data keep_dims="true"/>
			<input>
				<port id="0" precision="I64">
					<dim>3</dim>
				</port>
				<port id="1" precision="I64">
					<dim>1</dim>
				</port>
			</input>
			<output>
				<port id="2" precision="I64">
					<dim>1</dim>
				</port>
			</output>
		</layer>
		<layer id="261" name="Softmax_249/FlattenONNX_/second_dims" type="Const" version="opset1">
			<data element_type="i64" offset="328484" shape="1" size="8"/>
			<output>
				<port id="0" precision="I64">
					<dim>1</dim>
				</port>
			</output>
		</layer>
		<layer id="262" name="Softmax_249/FlattenONNX_/first_dims/shapes_concat" type="Concat" version="opset1">
			<data axis="0"/>
			<input>
				<port id="0" precision="I64">
					<dim>1</dim>
				</port>
				<port id="1" precision="I64">
					<dim>1</dim>
				</port>
			</input>
			<output>
				<port id="2" precision="I64">
					<dim>2</dim>
				</port>
			</output>
		</layer>
		<layer id="263" name="Softmax_249/FlattenONNX_/Reshape" type="Reshape" version="opset1">
			<data special_zero="true"/>
			<input>
				<port id="0" precision="FP32">
					<dim>129</dim>
					<dim>1</dim>
					<dim>16</dim>
					<dim>48</dim>
				</port>
				<port id="1" precision="I64">
					<dim>2</dim>
				</port>
			</input>
			<output>
				<port id="2" precision="FP32">
					<dim>2064</dim>
					<dim>48</dim>
				</port>
			</output>
		</layer>
		<layer id="264" name="Softmax_249/Softmax_" type="SoftMax" version="opset1">
			<data axis="1"/>
			<input>
				<port id="0" precision="FP32">
					<dim>2064</dim>
					<dim>48</dim>
				</port>
			</input>
			<output>
				<port id="1" precision="FP32">
					<dim>2064</dim>
					<dim>48</dim>
				</port>
			</output>
		</layer>
		<layer id="265" name="Softmax_249/ShapeOf_" type="ShapeOf" version="opset3">
			<data output_type="i64"/>
			<input>
				<port id="0" precision="FP32">
					<dim>129</dim>
					<dim>1</dim>
					<dim>16</dim>
					<dim>48</dim>
				</port>
			</input>
			<output>
				<port id="1" precision="I64">
					<dim>4</dim>
				</port>
			</output>
		</layer>
		<layer id="266" name="Softmax_249" type="Reshape" version="opset1">
			<data special_zero="true"/>
			<input>
				<port id="0" precision="FP32">
					<dim>2064</dim>
					<dim>48</dim>
				</port>
				<port id="1" precision="I64">
					<dim>4</dim>
				</port>
			</input>
			<output>
				<port id="2" names="657" precision="FP32">
					<dim>129</dim>
					<dim>1</dim>
					<dim>16</dim>
					<dim>48</dim>
				</port>
			</output>
		</layer>
		<layer id="267" name="Concat_149" type="Concat" version="opset1">
			<data axis="3"/>
			<input>
				<port id="0" precision="FP32">
					<dim>1</dim>
					<dim>129</dim>
					<dim>32</dim>
					<dim>32</dim>
				</port>
				<port id="1" precision="FP32">
					<dim>1</dim>
					<dim>129</dim>
					<dim>32</dim>
					<dim>16</dim>
				</port>
			</input>
			<output>
				<port id="2" names="527" precision="FP32">
					<dim>1</dim>
					<dim>129</dim>
					<dim>32</dim>
					<dim>48</dim>
				</port>
			</output>
		</layer>
		<layer id="268" name="Mul_177" type="Multiply" version="opset1">
			<data auto_broadcast="numpy"/>
			<input>
				<port id="0" precision="I64"/>
				<port id="1" precision="I64"/>
			</input>
			<output>
				<port id="2" names="565" precision="I64"/>
			</output>
		</layer>
		<layer id="269" name="Unsqueeze_178/Dims" type="Const" version="opset1">
			<data element_type="i64" offset="264212" shape="1" size="8"/>
			<output>
				<port id="0" precision="I64">
					<dim>1</dim>
				</port>
			</output>
		</layer>
		<layer id="270" name="Unsqueeze_178/Unsqueeze" type="Unsqueeze" version="opset1">
			<input>
				<port id="0" precision="I64"/>
				<port id="1" precision="I64">
					<dim>1</dim>
				</port>
			</input>
			<output>
				<port id="2" names="568" precision="I64">
					<dim>1</dim>
				</port>
			</output>
		</layer>
		<layer id="271" name="3199" type="Const" version="opset1">
			<data element_type="i64" offset="0" shape="1" size="8"/>
			<output>
				<port id="0" names="3199" precision="I64">
					<dim>1</dim>
				</port>
			</output>
		</layer>
		<layer id="272" name="3200" type="Const" version="opset1">
			<data element_type="i64" offset="328340" shape="1" size="8"/>
			<output>
				<port id="0" names="3200" precision="I64">
					<dim>1</dim>
				</port>
			</output>
		</layer>
		<layer id="273" name="Unsqueeze_179/Dims" type="Const" version="opset1">
			<data element_type="i64" offset="264212" shape="1" size="8"/>
			<output>
				<port id="0" precision="I64">
					<dim>1</dim>
				</port>
			</output>
		</layer>
		<layer id="274" name="Unsqueeze_179/Unsqueeze" type="Unsqueeze" version="opset1">
			<input>
				<port id="0" precision="I64"/>
				<port id="1" precision="I64">
					<dim>1</dim>
				</port>
			</input>
			<output>
				<port id="2" names="571" precision="I64">
					<dim>1</dim>
				</port>
			</output>
		</layer>
		<layer id="275" name="Concat_180" type="Concat" version="opset1">
			<data axis="0"/>
			<input>
				<port id="0" precision="I64">
					<dim>1</dim>
				</port>
				<port id="1" precision="I64">
					<dim>1</dim>
				</port>
				<port id="2" precision="I64">
					<dim>1</dim>
				</port>
				<port id="3" precision="I64">
					<dim>1</dim>
				</port>
			</input>
			<output>
				<port id="4" names="572" precision="I64">
					<dim>4</dim>
				</port>
			</output>
		</layer>
		<layer id="276" name="Reshape_181" type="Reshape" version="opset1">
			<data special_zero="true"/>
			<input>
				<port id="0" precision="FP32">
					<dim>1</dim>
					<dim>129</dim>
					<dim>32</dim>
					<dim>48</dim>
				</port>
				<port id="1" precision="I64">
					<dim>4</dim>
				</port>
			</input>
			<output>
				<port id="2" names="573" precision="FP32">
					<dim>129</dim>
					<dim>1</dim>
					<dim>32</dim>
					<dim>48</dim>
				</port>
			</output>
		</layer>
		<layer id="277" name="2884" type="Const" version="opset1">
			<data element_type="i64" offset="328348" shape="4" size="32"/>
			<output>
				<port id="0" precision="I64">
					<dim>4</dim>
				</port>
			</output>
		</layer>
		<layer id="278" name="Transpose_183" type="Transpose" version="opset1">
			<input>
				<port id="0" precision="FP32">
					<dim>129</dim>
					<dim>1</dim>
					<dim>32</dim>
					<dim>48</dim>
				</port>
				<port id="1" precision="I64">
					<dim>4</dim>
				</port>
			</input>
			<output>
				<port id="2" names="575" precision="FP32">
					<dim>129</dim>
					<dim>1</dim>
					<dim>48</dim>
					<dim>32</dim>
				</port>
			</output>
		</layer>
		<layer id="279" name="MatMul_250" type="MatMul" version="opset1">
			<data transpose_a="false" transpose_b="false"/>
			<input>
				<port id="0" precision="FP32">
					<dim>129</dim>
					<dim>1</dim>
					<dim>16</dim>
					<dim>48</dim>
				</port>
				<port id="1" precision="FP32">
					<dim>129</dim>
					<dim>1</dim>
					<dim>48</dim>
					<dim>32</dim>
				</port>
			</input>
			<output>
				<port id="2" names="658" precision="FP32">
					<dim>129</dim>
					<dim>1</dim>
					<dim>16</dim>
					<dim>32</dim>
				</port>
			</output>
		</layer>
		<layer id="280" name="2890" type="Const" version="opset1">
			<data element_type="i64" offset="328348" shape="4" size="32"/>
			<output>
				<port id="0" precision="I64">
					<dim>4</dim>
				</port>
			</output>
		</layer>
		<layer id="281" name="Transpose_251" type="Transpose" version="opset1">
			<input>
				<port id="0" precision="FP32">
					<dim>129</dim>
					<dim>1</dim>
					<dim>16</dim>
					<dim>32</dim>
				</port>
				<port id="1" precision="I64">
					<dim>4</dim>
				</port>
			</input>
			<output>
				<port id="2" names="659" precision="FP32">
					<dim>129</dim>
					<dim>1</dim>
					<dim>32</dim>
					<dim>16</dim>
				</port>
			</output>
		</layer>
		<layer id="282" name="Unsqueeze_252/Dims" type="Const" version="opset1">
			<data element_type="i64" offset="264212" shape="1" size="8"/>
			<output>
				<port id="0" precision="I64">
					<dim>1</dim>
				</port>
			</output>
		</layer>
		<layer id="283" name="Unsqueeze_252/Unsqueeze" type="Unsqueeze" version="opset1">
			<input>
				<port id="0" precision="I64"/>
				<port id="1" precision="I64">
					<dim>1</dim>
				</port>
			</input>
			<output>
				<port id="2" names="660" precision="I64">
					<dim>1</dim>
				</port>
			</output>
		</layer>
		<layer id="284" name="Unsqueeze_253/Dims" type="Const" version="opset1">
			<data element_type="i64" offset="264212" shape="1" size="8"/>
			<output>
				<port id="0" precision="I64">
					<dim>1</dim>
				</port>
			</output>
		</layer>
		<layer id="285" name="Unsqueeze_253/Unsqueeze" type="Unsqueeze" version="opset1">
			<input>
				<port id="0" precision="I64"/>
				<port id="1" precision="I64">
					<dim>1</dim>
				</port>
			</input>
			<output>
				<port id="2" names="661" precision="I64">
					<dim>1</dim>
				</port>
			</output>
		</layer>
		<layer id="286" name="Shape_128" type="ShapeOf" version="opset3">
			<data output_type="i64"/>
			<input>
				<port id="0" precision="FP32">
					<dim>1</dim>
					<dim>32</dim>
					<dim>129</dim>
					<dim>16</dim>
				</port>
			</input>
			<output>
				<port id="1" names="502" precision="I64">
					<dim>4</dim>
				</port>
			</output>
		</layer>
		<layer id="287" name="Constant_129" type="Const" version="opset1">
			<data element_type="i32" offset="264220" shape="" size="4"/>
			<output>
				<port id="0" names="503" precision="I32"/>
			</output>
		</layer>
		<layer id="288" name="Gather_130/axis" type="Const" version="opset1">
			<data element_type="i64" offset="264212" shape="" size="8"/>
			<output>
				<port id="0" precision="I64"/>
			</output>
		</layer>
		<layer id="289" name="Gather_1303861" type="Gather" version="opset7">
			<data batch_dims="0"/>
			<input>
				<port id="0" precision="I64">
					<dim>4</dim>
				</port>
				<port id="1" precision="I32"/>
				<port id="2" precision="I64"/>
			</input>
			<output>
				<port id="3" names="504" precision="I64"/>
			</output>
		</layer>
		<layer id="290" name="Unsqueeze_254/Dims" type="Const" version="opset1">
			<data element_type="i64" offset="264212" shape="1" size="8"/>
			<output>
				<port id="0" precision="I64">
					<dim>1</dim>
				</port>
			</output>
		</layer>
		<layer id="291" name="Unsqueeze_254/Unsqueeze" type="Unsqueeze" version="opset1">
			<input>
				<port id="0" precision="I64"/>
				<port id="1" precision="I64">
					<dim>1</dim>
				</port>
			</input>
			<output>
				<port id="2" names="662" precision="I64">
					<dim>1</dim>
				</port>
			</output>
		</layer>
		<layer id="292" name="Unsqueeze_255/Dims" type="Const" version="opset1">
			<data element_type="i64" offset="264212" shape="1" size="8"/>
			<output>
				<port id="0" precision="I64">
					<dim>1</dim>
				</port>
			</output>
		</layer>
		<layer id="293" name="Unsqueeze_255/Unsqueeze" type="Unsqueeze" version="opset1">
			<input>
				<port id="0" precision="I64"/>
				<port id="1" precision="I64">
					<dim>1</dim>
				</port>
			</input>
			<output>
				<port id="2" names="663" precision="I64">
					<dim>1</dim>
				</port>
			</output>
		</layer>
		<layer id="294" name="Concat_256" type="Concat" version="opset1">
			<data axis="0"/>
			<input>
				<port id="0" precision="I64">
					<dim>1</dim>
				</port>
				<port id="1" precision="I64">
					<dim>1</dim>
				</port>
				<port id="2" precision="I64">
					<dim>1</dim>
				</port>
				<port id="3" precision="I64">
					<dim>1</dim>
				</port>
			</input>
			<output>
				<port id="4" names="664" precision="I64">
					<dim>4</dim>
				</port>
			</output>
		</layer>
		<layer id="295" name="Reshape_257" type="Reshape" version="opset1">
			<data special_zero="true"/>
			<input>
				<port id="0" precision="FP32">
					<dim>129</dim>
					<dim>1</dim>
					<dim>32</dim>
					<dim>16</dim>
				</port>
				<port id="1" precision="I64">
					<dim>4</dim>
				</port>
			</input>
			<output>
				<port id="2" names="665" precision="FP32">
					<dim>1</dim>
					<dim>129</dim>
					<dim>32</dim>
					<dim>16</dim>
				</port>
			</output>
		</layer>
		<layer id="296" name="2848" type="Const" version="opset1">
			<data element_type="i64" offset="328280" shape="4" size="32"/>
			<output>
				<port id="0" precision="I64">
					<dim>4</dim>
				</port>
			</output>
		</layer>
		<layer id="297" name="Transpose_258" type="Transpose" version="opset1">
			<input>
				<port id="0" precision="FP32">
					<dim>1</dim>
					<dim>129</dim>
					<dim>32</dim>
					<dim>16</dim>
				</port>
				<port id="1" precision="I64">
					<dim>4</dim>
				</port>
			</input>
			<output>
				<port id="2" names="666" precision="FP32">
					<dim>1</dim>
					<dim>32</dim>
					<dim>129</dim>
					<dim>16</dim>
				</port>
			</output>
		</layer>
		<layer id="298" name="blocks_down.0.sa.conv_o.weight" type="Const" version="opset1">
			<data element_type="f32" offset="328540" shape="32, 32, 1, 1" size="4096"/>
			<output>
				<port id="0" names="blocks_down.0.sa.conv_o.weight" precision="FP32">
					<dim>32</dim>
					<dim>32</dim>
					<dim>1</dim>
					<dim>1</dim>
				</port>
			</output>
		</layer>
		<layer id="299" name="Conv_259/WithoutBiases" type="Convolution" version="opset1">
			<data auto_pad="explicit" dilations="1, 1" pads_begin="0, 0" pads_end="0, 0" strides="1, 1"/>
			<input>
				<port id="0" precision="FP32">
					<dim>1</dim>
					<dim>32</dim>
					<dim>129</dim>
					<dim>16</dim>
				</port>
				<port id="1" precision="FP32">
					<dim>32</dim>
					<dim>32</dim>
					<dim>1</dim>
					<dim>1</dim>
				</port>
			</input>
			<output>
				<port id="2" precision="FP32">
					<dim>1</dim>
					<dim>32</dim>
					<dim>129</dim>
					<dim>16</dim>
				</port>
			</output>
		</layer>
		<layer id="300" name="Conv_259/Dims27496" type="Const" version="opset1">
			<data element_type="f32" offset="332636" shape="1, 32, 1, 1" size="128"/>
			<output>
				<port id="0" precision="FP32">
					<dim>1</dim>
					<dim>32</dim>
					<dim>1</dim>
					<dim>1</dim>
				</port>
			</output>
		</layer>
		<layer id="301" name="Conv_259" type="Add" version="opset1">
			<data auto_broadcast="numpy"/>
			<input>
				<port id="0" precision="FP32">
					<dim>1</dim>
					<dim>32</dim>
					<dim>129</dim>
					<dim>16</dim>
				</port>
				<port id="1" precision="FP32">
					<dim>1</dim>
					<dim>32</dim>
					<dim>1</dim>
					<dim>1</dim>
				</port>
			</input>
			<output>
				<port id="2" names="667" precision="FP32">
					<dim>1</dim>
					<dim>32</dim>
					<dim>129</dim>
					<dim>16</dim>
				</port>
			</output>
		</layer>
		<layer id="302" name="Concat_260" type="Concat" version="opset1">
			<data axis="1"/>
			<input>
				<port id="0" precision="FP32">
					<dim>1</dim>
					<dim>32</dim>
					<dim>129</dim>
					<dim>16</dim>
				</port>
				<port id="1" precision="FP32">
					<dim>1</dim>
					<dim>32</dim>
					<dim>129</dim>
					<dim>16</dim>
				</port>
			</input>
			<output>
				<port id="2" names="668" precision="FP32">
					<dim>1</dim>
					<dim>64</dim>
					<dim>129</dim>
					<dim>16</dim>
				</port>
			</output>
		</layer>
		<layer id="303" name="data_mul_5398653990" type="Const" version="opset1">
			<data element_type="f32" offset="332764" shape="1, 64, 1, 1" size="256"/>
			<output>
				<port id="0" precision="FP32">
					<dim>1</dim>
					<dim>64</dim>
					<dim>1</dim>
					<dim>1</dim>
				</port>
			</output>
		</layer>
		<layer id="304" name="BatchNormalization_261/mean/Fused_Mul_" type="Multiply" version="opset1">
			<data auto_broadcast="numpy"/>
			<input>
				<port id="0" precision="FP32">
					<dim>1</dim>
					<dim>64</dim>
					<dim>129</dim>
					<dim>16</dim>
				</port>
				<port id="1" precision="FP32">
					<dim>1</dim>
					<dim>64</dim>
					<dim>1</dim>
					<dim>1</dim>
				</port>
			</input>
			<output>
				<port id="2" precision="FP32">
					<dim>1</dim>
					<dim>64</dim>
					<dim>129</dim>
					<dim>16</dim>
				</port>
			</output>
		</layer>
		<layer id="305" name="data_add_5398753992" type="Const" version="opset1">
			<data element_type="f32" offset="333020" shape="1, 64, 1, 1" size="256"/>
			<output>
				<port id="0" precision="FP32">
					<dim>1</dim>
					<dim>64</dim>
					<dim>1</dim>
					<dim>1</dim>
				</port>
			</output>
		</layer>
		<layer id="306" name="BatchNormalization_261/variance/Fused_Add_" type="Add" version="opset1">
			<data auto_broadcast="numpy"/>
			<input>
				<port id="0" precision="FP32">
					<dim>1</dim>
					<dim>64</dim>
					<dim>129</dim>
					<dim>16</dim>
				</port>
				<port id="1" precision="FP32">
					<dim>1</dim>
					<dim>64</dim>
					<dim>1</dim>
					<dim>1</dim>
				</port>
			</input>
			<output>
				<port id="2" names="669" precision="FP32">
					<dim>1</dim>
					<dim>64</dim>
					<dim>129</dim>
					<dim>16</dim>
				</port>
			</output>
		</layer>
		<layer id="307" name="LeakyRelu_262/weights90422143377" type="Const" version="opset1">
			<data element_type="f32" offset="264244" shape="1" size="4"/>
			<output>
				<port id="0" precision="FP32">
					<dim>1</dim>
				</port>
			</output>
		</layer>
		<layer id="308" name="LeakyRelu_262" type="PReLU" version="opset1">
			<input>
				<port id="0" precision="FP32">
					<dim>1</dim>
					<dim>64</dim>
					<dim>129</dim>
					<dim>16</dim>
				</port>
				<port id="1" precision="FP32">
					<dim>1</dim>
				</port>
			</input>
			<output>
				<port id="2" names="670" precision="FP32">
					<dim>1</dim>
					<dim>64</dim>
					<dim>129</dim>
					<dim>16</dim>
				</port>
			</output>
		</layer>
		<layer id="309" name="blocks_down.0.sa_out.conv.weight" type="Const" version="opset1">
			<data element_type="f32" offset="333276" shape="32, 64, 1, 1" size="8192"/>
			<output>
				<port id="0" names="blocks_down.0.sa_out.conv.weight" precision="FP32">
					<dim>32</dim>
					<dim>64</dim>
					<dim>1</dim>
					<dim>1</dim>
				</port>
			</output>
		</layer>
		<layer id="310" name="Conv_263/WithoutBiases" type="Convolution" version="opset1">
			<data auto_pad="explicit" dilations="1, 1" pads_begin="0, 0" pads_end="0, 0" strides="1, 1"/>
			<input>
				<port id="0" precision="FP32">
					<dim>1</dim>
					<dim>64</dim>
					<dim>129</dim>
					<dim>16</dim>
				</port>
				<port id="1" precision="FP32">
					<dim>32</dim>
					<dim>64</dim>
					<dim>1</dim>
					<dim>1</dim>
				</port>
			</input>
			<output>
				<port id="2" precision="FP32">
					<dim>1</dim>
					<dim>32</dim>
					<dim>129</dim>
					<dim>16</dim>
				</port>
			</output>
		</layer>
		<layer id="311" name="Conv_263/Dims27568" type="Const" version="opset1">
			<data element_type="f32" offset="341468" shape="1, 32, 1, 1" size="128"/>
			<output>
				<port id="0" precision="FP32">
					<dim>1</dim>
					<dim>32</dim>
					<dim>1</dim>
					<dim>1</dim>
				</port>
			</output>
		</layer>
		<layer id="312" name="Conv_263" type="Add" version="opset1">
			<data auto_broadcast="numpy"/>
			<input>
				<port id="0" precision="FP32">
					<dim>1</dim>
					<dim>32</dim>
					<dim>129</dim>
					<dim>16</dim>
				</port>
				<port id="1" precision="FP32">
					<dim>1</dim>
					<dim>32</dim>
					<dim>1</dim>
					<dim>1</dim>
				</port>
			</input>
			<output>
				<port id="2" names="671,673" precision="FP32">
					<dim>1</dim>
					<dim>32</dim>
					<dim>129</dim>
					<dim>16</dim>
				</port>
			</output>
		</layer>
		<layer id="313" name="AveragePool_266" type="AvgPool" version="opset1">
			<data auto_pad="explicit" exclude-pad="true" kernel="2, 2" pads_begin="0, 0" pads_end="0, 0" rounding_type="floor" strides="2, 2"/>
			<input>
				<port id="0" precision="FP32">
					<dim>1</dim>
					<dim>32</dim>
					<dim>129</dim>
					<dim>16</dim>
				</port>
			</input>
			<output>
				<port id="1" names="674" precision="FP32">
					<dim>1</dim>
					<dim>32</dim>
					<dim>64</dim>
					<dim>8</dim>
				</port>
			</output>
		</layer>
		<layer id="314" name="data_mul_5399453998" type="Const" version="opset1">
			<data element_type="f32" offset="341596" shape="1, 32, 1, 1" size="128"/>
			<output>
				<port id="0" precision="FP32">
					<dim>1</dim>
					<dim>32</dim>
					<dim>1</dim>
					<dim>1</dim>
				</port>
			</output>
		</layer>
		<layer id="315" name="BatchNormalization_267/mean/Fused_Mul_" type="Multiply" version="opset1">
			<data auto_broadcast="numpy"/>
			<input>
				<port id="0" precision="FP32">
					<dim>1</dim>
					<dim>32</dim>
					<dim>64</dim>
					<dim>8</dim>
				</port>
				<port id="1" precision="FP32">
					<dim>1</dim>
					<dim>32</dim>
					<dim>1</dim>
					<dim>1</dim>
				</port>
			</input>
			<output>
				<port id="2" precision="FP32">
					<dim>1</dim>
					<dim>32</dim>
					<dim>64</dim>
					<dim>8</dim>
				</port>
			</output>
		</layer>
		<layer id="316" name="data_add_5399554000" type="Const" version="opset1">
			<data element_type="f32" offset="341724" shape="1, 32, 1, 1" size="128"/>
			<output>
				<port id="0" precision="FP32">
					<dim>1</dim>
					<dim>32</dim>
					<dim>1</dim>
					<dim>1</dim>
				</port>
			</output>
		</layer>
		<layer id="317" name="BatchNormalization_267/variance/Fused_Add_" type="Add" version="opset1">
			<data auto_broadcast="numpy"/>
			<input>
				<port id="0" precision="FP32">
					<dim>1</dim>
					<dim>32</dim>
					<dim>64</dim>
					<dim>8</dim>
				</port>
				<port id="1" precision="FP32">
					<dim>1</dim>
					<dim>32</dim>
					<dim>1</dim>
					<dim>1</dim>
				</port>
			</input>
			<output>
				<port id="2" names="675" precision="FP32">
					<dim>1</dim>
					<dim>32</dim>
					<dim>64</dim>
					<dim>8</dim>
				</port>
			</output>
		</layer>
		<layer id="318" name="LeakyRelu_268/weights90502140977" type="Const" version="opset1">
			<data element_type="f32" offset="264244" shape="1" size="4"/>
			<output>
				<port id="0" precision="FP32">
					<dim>1</dim>
				</port>
			</output>
		</layer>
		<layer id="319" name="LeakyRelu_268" type="PReLU" version="opset1">
			<input>
				<port id="0" precision="FP32">
					<dim>1</dim>
					<dim>32</dim>
					<dim>64</dim>
					<dim>8</dim>
				</port>
				<port id="1" precision="FP32">
					<dim>1</dim>
				</port>
			</input>
			<output>
				<port id="2" names="676" precision="FP32">
					<dim>1</dim>
					<dim>32</dim>
					<dim>64</dim>
					<dim>8</dim>
				</port>
			</output>
		</layer>
		<layer id="320" name="Concat_269" type="Concat" version="opset1">
			<data axis="3"/>
			<input>
				<port id="0" precision="FP32">
					<dim>1</dim>
					<dim>32</dim>
					<dim>64</dim>
					<dim>2</dim>
				</port>
				<port id="1" precision="FP32">
					<dim>1</dim>
					<dim>32</dim>
					<dim>64</dim>
					<dim>8</dim>
				</port>
			</input>
			<output>
				<port id="2" names="677" precision="FP32">
					<dim>1</dim>
					<dim>32</dim>
					<dim>64</dim>
					<dim>10</dim>
				</port>
			</output>
		</layer>
		<layer id="321" name="blocks_down.1.bd.0.conv.weight" type="Const" version="opset1">
			<data element_type="f32" offset="341852" shape="16, 32, 3, 3" size="18432"/>
			<output>
				<port id="0" names="blocks_down.1.bd.0.conv.weight" precision="FP32">
					<dim>16</dim>
					<dim>32</dim>
					<dim>3</dim>
					<dim>3</dim>
				</port>
			</output>
		</layer>
		<layer id="322" name="Conv_296/WithoutBiases" type="Convolution" version="opset1">
			<data auto_pad="explicit" dilations="1, 1" pads_begin="1, 0" pads_end="1, 0" strides="1, 1"/>
			<input>
				<port id="0" precision="FP32">
					<dim>1</dim>
					<dim>32</dim>
					<dim>64</dim>
					<dim>10</dim>
				</port>
				<port id="1" precision="FP32">
					<dim>16</dim>
					<dim>32</dim>
					<dim>3</dim>
					<dim>3</dim>
				</port>
			</input>
			<output>
				<port id="2" precision="FP32">
					<dim>1</dim>
					<dim>16</dim>
					<dim>64</dim>
					<dim>8</dim>
				</port>
			</output>
		</layer>
		<layer id="323" name="Conv_296/Dims27562" type="Const" version="opset1">
			<data element_type="f32" offset="360284" shape="1, 16, 1, 1" size="64"/>
			<output>
				<port id="0" precision="FP32">
					<dim>1</dim>
					<dim>16</dim>
					<dim>1</dim>
					<dim>1</dim>
				</port>
			</output>
		</layer>
		<layer id="324" name="Conv_296" type="Add" version="opset1">
			<data auto_broadcast="numpy"/>
			<input>
				<port id="0" precision="FP32">
					<dim>1</dim>
					<dim>16</dim>
					<dim>64</dim>
					<dim>8</dim>
				</port>
				<port id="1" precision="FP32">
					<dim>1</dim>
					<dim>16</dim>
					<dim>1</dim>
					<dim>1</dim>
				</port>
			</input>
			<output>
				<port id="2" names="715" precision="FP32">
					<dim>1</dim>
					<dim>16</dim>
					<dim>64</dim>
					<dim>8</dim>
				</port>
			</output>
		</layer>
		<layer id="325" name="Concat_297" type="Concat" version="opset1">
			<data axis="1"/>
			<input>
				<port id="0" precision="FP32">
					<dim>1</dim>
					<dim>32</dim>
					<dim>64</dim>
					<dim>8</dim>
				</port>
				<port id="1" precision="FP32">
					<dim>1</dim>
					<dim>16</dim>
					<dim>64</dim>
					<dim>8</dim>
				</port>
			</input>
			<output>
				<port id="2" names="716" precision="FP32">
					<dim>1</dim>
					<dim>48</dim>
					<dim>64</dim>
					<dim>8</dim>
				</port>
			</output>
		</layer>
		<layer id="326" name="data_mul_5400254006" type="Const" version="opset1">
			<data element_type="f32" offset="360348" shape="1, 48, 1, 1" size="192"/>
			<output>
				<port id="0" precision="FP32">
					<dim>1</dim>
					<dim>48</dim>
					<dim>1</dim>
					<dim>1</dim>
				</port>
			</output>
		</layer>
		<layer id="327" name="BatchNormalization_298/mean/Fused_Mul_" type="Multiply" version="opset1">
			<data auto_broadcast="numpy"/>
			<input>
				<port id="0" precision="FP32">
					<dim>1</dim>
					<dim>48</dim>
					<dim>64</dim>
					<dim>8</dim>
				</port>
				<port id="1" precision="FP32">
					<dim>1</dim>
					<dim>48</dim>
					<dim>1</dim>
					<dim>1</dim>
				</port>
			</input>
			<output>
				<port id="2" precision="FP32">
					<dim>1</dim>
					<dim>48</dim>
					<dim>64</dim>
					<dim>8</dim>
				</port>
			</output>
		</layer>
		<layer id="328" name="data_add_5400354008" type="Const" version="opset1">
			<data element_type="f32" offset="360540" shape="1, 48, 1, 1" size="192"/>
			<output>
				<port id="0" precision="FP32">
					<dim>1</dim>
					<dim>48</dim>
					<dim>1</dim>
					<dim>1</dim>
				</port>
			</output>
		</layer>
		<layer id="329" name="BatchNormalization_298/variance/Fused_Add_" type="Add" version="opset1">
			<data auto_broadcast="numpy"/>
			<input>
				<port id="0" precision="FP32">
					<dim>1</dim>
					<dim>48</dim>
					<dim>64</dim>
					<dim>8</dim>
				</port>
				<port id="1" precision="FP32">
					<dim>1</dim>
					<dim>48</dim>
					<dim>1</dim>
					<dim>1</dim>
				</port>
			</input>
			<output>
				<port id="2" names="717" precision="FP32">
					<dim>1</dim>
					<dim>48</dim>
					<dim>64</dim>
					<dim>8</dim>
				</port>
			</output>
		</layer>
		<layer id="330" name="LeakyRelu_299/weights90454142222" type="Const" version="opset1">
			<data element_type="f32" offset="264244" shape="1" size="4"/>
			<output>
				<port id="0" precision="FP32">
					<dim>1</dim>
				</port>
			</output>
		</layer>
		<layer id="331" name="LeakyRelu_299" type="PReLU" version="opset1">
			<input>
				<port id="0" precision="FP32">
					<dim>1</dim>
					<dim>48</dim>
					<dim>64</dim>
					<dim>8</dim>
				</port>
				<port id="1" precision="FP32">
					<dim>1</dim>
				</port>
			</input>
			<output>
				<port id="2" names="718" precision="FP32">
					<dim>1</dim>
					<dim>48</dim>
					<dim>64</dim>
					<dim>8</dim>
				</port>
			</output>
		</layer>
		<layer id="332" name="Concat_300" type="Concat" version="opset1">
			<data axis="3"/>
			<input>
				<port id="0" precision="FP32">
					<dim>1</dim>
					<dim>48</dim>
					<dim>64</dim>
					<dim>2</dim>
				</port>
				<port id="1" precision="FP32">
					<dim>1</dim>
					<dim>48</dim>
					<dim>64</dim>
					<dim>8</dim>
				</port>
			</input>
			<output>
				<port id="2" names="719" precision="FP32">
					<dim>1</dim>
					<dim>48</dim>
					<dim>64</dim>
					<dim>10</dim>
				</port>
			</output>
		</layer>
		<layer id="333" name="blocks_down.1.bd.1.conv.weight" type="Const" version="opset1">
			<data element_type="f32" offset="360732" shape="16, 48, 3, 3" size="27648"/>
			<output>
				<port id="0" names="blocks_down.1.bd.1.conv.weight" precision="FP32">
					<dim>16</dim>
					<dim>48</dim>
					<dim>3</dim>
					<dim>3</dim>
				</port>
			</output>
		</layer>
		<layer id="334" name="Conv_327/WithoutBiases" type="Convolution" version="opset1">
			<data auto_pad="explicit" dilations="1, 1" pads_begin="1, 0" pads_end="1, 0" strides="1, 1"/>
			<input>
				<port id="0" precision="FP32">
					<dim>1</dim>
					<dim>48</dim>
					<dim>64</dim>
					<dim>10</dim>
				</port>
				<port id="1" precision="FP32">
					<dim>16</dim>
					<dim>48</dim>
					<dim>3</dim>
					<dim>3</dim>
				</port>
			</input>
			<output>
				<port id="2" precision="FP32">
					<dim>1</dim>
					<dim>16</dim>
					<dim>64</dim>
					<dim>8</dim>
				</port>
			</output>
		</layer>
		<layer id="335" name="Conv_327/Dims27280" type="Const" version="opset1">
			<data element_type="f32" offset="388380" shape="1, 16, 1, 1" size="64"/>
			<output>
				<port id="0" precision="FP32">
					<dim>1</dim>
					<dim>16</dim>
					<dim>1</dim>
					<dim>1</dim>
				</port>
			</output>
		</layer>
		<layer id="336" name="Conv_327" type="Add" version="opset1">
			<data auto_broadcast="numpy"/>
			<input>
				<port id="0" precision="FP32">
					<dim>1</dim>
					<dim>16</dim>
					<dim>64</dim>
					<dim>8</dim>
				</port>
				<port id="1" precision="FP32">
					<dim>1</dim>
					<dim>16</dim>
					<dim>1</dim>
					<dim>1</dim>
				</port>
			</input>
			<output>
				<port id="2" names="757" precision="FP32">
					<dim>1</dim>
					<dim>16</dim>
					<dim>64</dim>
					<dim>8</dim>
				</port>
			</output>
		</layer>
		<layer id="337" name="Concat_328" type="Concat" version="opset1">
			<data axis="1"/>
			<input>
				<port id="0" precision="FP32">
					<dim>1</dim>
					<dim>48</dim>
					<dim>64</dim>
					<dim>8</dim>
				</port>
				<port id="1" precision="FP32">
					<dim>1</dim>
					<dim>16</dim>
					<dim>64</dim>
					<dim>8</dim>
				</port>
			</input>
			<output>
				<port id="2" names="758" precision="FP32">
					<dim>1</dim>
					<dim>64</dim>
					<dim>64</dim>
					<dim>8</dim>
				</port>
			</output>
		</layer>
		<layer id="338" name="data_mul_5401054014" type="Const" version="opset1">
			<data element_type="f32" offset="388444" shape="1, 64, 1, 1" size="256"/>
			<output>
				<port id="0" precision="FP32">
					<dim>1</dim>
					<dim>64</dim>
					<dim>1</dim>
					<dim>1</dim>
				</port>
			</output>
		</layer>
		<layer id="339" name="BatchNormalization_329/mean/Fused_Mul_" type="Multiply" version="opset1">
			<data auto_broadcast="numpy"/>
			<input>
				<port id="0" precision="FP32">
					<dim>1</dim>
					<dim>64</dim>
					<dim>64</dim>
					<dim>8</dim>
				</port>
				<port id="1" precision="FP32">
					<dim>1</dim>
					<dim>64</dim>
					<dim>1</dim>
					<dim>1</dim>
				</port>
			</input>
			<output>
				<port id="2" precision="FP32">
					<dim>1</dim>
					<dim>64</dim>
					<dim>64</dim>
					<dim>8</dim>
				</port>
			</output>
		</layer>
		<layer id="340" name="data_add_5401154016" type="Const" version="opset1">
			<data element_type="f32" offset="388700" shape="1, 64, 1, 1" size="256"/>
			<output>
				<port id="0" precision="FP32">
					<dim>1</dim>
					<dim>64</dim>
					<dim>1</dim>
					<dim>1</dim>
				</port>
			</output>
		</layer>
		<layer id="341" name="BatchNormalization_329/variance/Fused_Add_" type="Add" version="opset1">
			<data auto_broadcast="numpy"/>
			<input>
				<port id="0" precision="FP32">
					<dim>1</dim>
					<dim>64</dim>
					<dim>64</dim>
					<dim>8</dim>
				</port>
				<port id="1" precision="FP32">
					<dim>1</dim>
					<dim>64</dim>
					<dim>1</dim>
					<dim>1</dim>
				</port>
			</input>
			<output>
				<port id="2" names="759" precision="FP32">
					<dim>1</dim>
					<dim>64</dim>
					<dim>64</dim>
					<dim>8</dim>
				</port>
			</output>
		</layer>
		<layer id="342" name="LeakyRelu_330/weights90478142366" type="Const" version="opset1">
			<data element_type="f32" offset="264244" shape="1" size="4"/>
			<output>
				<port id="0" precision="FP32">
					<dim>1</dim>
				</port>
			</output>
		</layer>
		<layer id="343" name="LeakyRelu_330" type="PReLU" version="opset1">
			<input>
				<port id="0" precision="FP32">
					<dim>1</dim>
					<dim>64</dim>
					<dim>64</dim>
					<dim>8</dim>
				</port>
				<port id="1" precision="FP32">
					<dim>1</dim>
				</port>
			</input>
			<output>
				<port id="2" names="760" precision="FP32">
					<dim>1</dim>
					<dim>64</dim>
					<dim>64</dim>
					<dim>8</dim>
				</port>
			</output>
		</layer>
		<layer id="344" name="Concat_331" type="Concat" version="opset1">
			<data axis="3"/>
			<input>
				<port id="0" precision="FP32">
					<dim>1</dim>
					<dim>64</dim>
					<dim>64</dim>
					<dim>2</dim>
				</port>
				<port id="1" precision="FP32">
					<dim>1</dim>
					<dim>64</dim>
					<dim>64</dim>
					<dim>8</dim>
				</port>
			</input>
			<output>
				<port id="2" names="761" precision="FP32">
					<dim>1</dim>
					<dim>64</dim>
					<dim>64</dim>
					<dim>10</dim>
				</port>
			</output>
		</layer>
		<layer id="345" name="blocks_down.1.bd_out.conv.weight" type="Const" version="opset1">
			<data element_type="f32" offset="388956" shape="64, 64, 3, 3" size="147456"/>
			<output>
				<port id="0" names="blocks_down.1.bd_out.conv.weight" precision="FP32">
					<dim>64</dim>
					<dim>64</dim>
					<dim>3</dim>
					<dim>3</dim>
				</port>
			</output>
		</layer>
		<layer id="346" name="Conv_358/WithoutBiases" type="Convolution" version="opset1">
			<data auto_pad="explicit" dilations="1, 1" pads_begin="1, 0" pads_end="1, 0" strides="1, 1"/>
			<input>
				<port id="0" precision="FP32">
					<dim>1</dim>
					<dim>64</dim>
					<dim>64</dim>
					<dim>10</dim>
				</port>
				<port id="1" precision="FP32">
					<dim>64</dim>
					<dim>64</dim>
					<dim>3</dim>
					<dim>3</dim>
				</port>
			</input>
			<output>
				<port id="2" precision="FP32">
					<dim>1</dim>
					<dim>64</dim>
					<dim>64</dim>
					<dim>8</dim>
				</port>
			</output>
		</layer>
		<layer id="347" name="Conv_358/Dims27592" type="Const" version="opset1">
			<data element_type="f32" offset="536412" shape="1, 64, 1, 1" size="256"/>
			<output>
				<port id="0" precision="FP32">
					<dim>1</dim>
					<dim>64</dim>
					<dim>1</dim>
					<dim>1</dim>
				</port>
			</output>
		</layer>
		<layer id="348" name="Conv_358" type="Add" version="opset1">
			<data auto_broadcast="numpy"/>
			<input>
				<port id="0" precision="FP32">
					<dim>1</dim>
					<dim>64</dim>
					<dim>64</dim>
					<dim>8</dim>
				</port>
				<port id="1" precision="FP32">
					<dim>1</dim>
					<dim>64</dim>
					<dim>1</dim>
					<dim>1</dim>
				</port>
			</input>
			<output>
				<port id="2" names="799" precision="FP32">
					<dim>1</dim>
					<dim>64</dim>
					<dim>64</dim>
					<dim>8</dim>
				</port>
			</output>
		</layer>
		<layer id="349" name="blocks_down.1.sa.linear_qkv.weight" type="Const" version="opset1">
			<data element_type="f32" offset="536668" shape="192, 64, 1, 1" size="49152"/>
			<output>
				<port id="0" names="blocks_down.1.sa.linear_qkv.weight" precision="FP32">
					<dim>192</dim>
					<dim>64</dim>
					<dim>1</dim>
					<dim>1</dim>
				</port>
			</output>
		</layer>
		<layer id="350" name="Conv_368/WithoutBiases" type="Convolution" version="opset1">
			<data auto_pad="explicit" dilations="1, 1" pads_begin="0, 0" pads_end="0, 0" strides="1, 1"/>
			<input>
				<port id="0" precision="FP32">
					<dim>1</dim>
					<dim>64</dim>
					<dim>64</dim>
					<dim>8</dim>
				</port>
				<port id="1" precision="FP32">
					<dim>192</dim>
					<dim>64</dim>
					<dim>1</dim>
					<dim>1</dim>
				</port>
			</input>
			<output>
				<port id="2" precision="FP32">
					<dim>1</dim>
					<dim>192</dim>
					<dim>64</dim>
					<dim>8</dim>
				</port>
			</output>
		</layer>
		<layer id="351" name="Conv_368/Dims27574" type="Const" version="opset1">
			<data element_type="f32" offset="585820" shape="1, 192, 1, 1" size="768"/>
			<output>
				<port id="0" precision="FP32">
					<dim>1</dim>
					<dim>192</dim>
					<dim>1</dim>
					<dim>1</dim>
				</port>
			</output>
		</layer>
		<layer id="352" name="Conv_368" type="Add" version="opset1">
			<data auto_broadcast="numpy"/>
			<input>
				<port id="0" precision="FP32">
					<dim>1</dim>
					<dim>192</dim>
					<dim>64</dim>
					<dim>8</dim>
				</port>
				<port id="1" precision="FP32">
					<dim>1</dim>
					<dim>192</dim>
					<dim>1</dim>
					<dim>1</dim>
				</port>
			</input>
			<output>
				<port id="2" names="809" precision="FP32">
					<dim>1</dim>
					<dim>192</dim>
					<dim>64</dim>
					<dim>8</dim>
				</port>
			</output>
		</layer>
		<layer id="353" name="2856" type="Const" version="opset1">
			<data element_type="i64" offset="328280" shape="4" size="32"/>
			<output>
				<port id="0" precision="I64">
					<dim>4</dim>
				</port>
			</output>
		</layer>
		<layer id="354" name="Transpose_369" type="Transpose" version="opset1">
			<input>
				<port id="0" precision="FP32">
					<dim>1</dim>
					<dim>192</dim>
					<dim>64</dim>
					<dim>8</dim>
				</port>
				<port id="1" precision="I64">
					<dim>4</dim>
				</port>
			</input>
			<output>
				<port id="2" names="810" precision="FP32">
					<dim>1</dim>
					<dim>64</dim>
					<dim>192</dim>
					<dim>8</dim>
				</port>
			</output>
		</layer>
		<layer id="355" name="Split_370/VariadicSplit_input_port_1/value" type="Const" version="opset1">
			<data element_type="i64" offset="8" shape="" size="8"/>
			<output>
				<port id="0" precision="I64"/>
			</output>
		</layer>
		<layer id="356" name="Split_370/VariadicSplit_input_port_2/value" type="Const" version="opset1">
			<data element_type="i64" offset="586588" shape="3" size="24"/>
			<output>
				<port id="0" precision="I64">
					<dim>3</dim>
				</port>
			</output>
		</layer>
		<layer id="357" name="Split_370/VariadicSplit" type="VariadicSplit" version="opset1">
			<input>
				<port id="0" precision="FP32">
					<dim>1</dim>
					<dim>64</dim>
					<dim>192</dim>
					<dim>8</dim>
				</port>
				<port id="1" precision="I64"/>
				<port id="2" precision="I64">
					<dim>3</dim>
				</port>
			</input>
			<output>
				<port id="3" names="811" precision="FP32">
					<dim>1</dim>
					<dim>64</dim>
					<dim>64</dim>
					<dim>8</dim>
				</port>
				<port id="4" names="812" precision="FP32">
					<dim>1</dim>
					<dim>64</dim>
					<dim>64</dim>
					<dim>8</dim>
				</port>
				<port id="5" names="813" precision="FP32">
					<dim>1</dim>
					<dim>64</dim>
					<dim>64</dim>
					<dim>8</dim>
				</port>
			</output>
		</layer>
		<layer id="358" name="Shape_359" type="ShapeOf" version="opset3">
			<data output_type="i64"/>
			<input>
				<port id="0" precision="FP32">
					<dim>1</dim>
					<dim>64</dim>
					<dim>64</dim>
					<dim>8</dim>
				</port>
			</input>
			<output>
				<port id="1" names="800" precision="I64">
					<dim>4</dim>
				</port>
			</output>
		</layer>
		<layer id="359" name="Constant_360" type="Const" version="opset1">
			<data element_type="i32" offset="264208" shape="" size="4"/>
			<output>
				<port id="0" names="801" precision="I32"/>
			</output>
		</layer>
		<layer id="360" name="Gather_361/axis" type="Const" version="opset1">
			<data element_type="i64" offset="264212" shape="" size="8"/>
			<output>
				<port id="0" precision="I64"/>
			</output>
		</layer>
		<layer id="361" name="Gather_3613905" type="Gather" version="opset7">
			<data batch_dims="0"/>
			<input>
				<port id="0" precision="I64">
					<dim>4</dim>
				</port>
				<port id="1" precision="I32"/>
				<port id="2" precision="I64"/>
			</input>
			<output>
				<port id="3" names="802" precision="I64"/>
			</output>
		</layer>
		<layer id="362" name="Shape_365" type="ShapeOf" version="opset3">
			<data output_type="i64"/>
			<input>
				<port id="0" precision="FP32">
					<dim>1</dim>
					<dim>64</dim>
					<dim>64</dim>
					<dim>8</dim>
				</port>
			</input>
			<output>
				<port id="1" names="806" precision="I64">
					<dim>4</dim>
				</port>
			</output>
		</layer>
		<layer id="363" name="Constant_366" type="Const" version="opset1">
			<data element_type="i32" offset="328336" shape="" size="4"/>
			<output>
				<port id="0" names="807" precision="I32"/>
			</output>
		</layer>
		<layer id="364" name="Gather_367/axis" type="Const" version="opset1">
			<data element_type="i64" offset="264212" shape="" size="8"/>
			<output>
				<port id="0" precision="I64"/>
			</output>
		</layer>
		<layer id="365" name="Gather_3674007" type="Gather" version="opset7">
			<data batch_dims="0"/>
			<input>
				<port id="0" precision="I64">
					<dim>4</dim>
				</port>
				<port id="1" precision="I32"/>
				<port id="2" precision="I64"/>
			</input>
			<output>
				<port id="3" names="808" precision="I64"/>
			</output>
		</layer>
		<layer id="366" name="Mul_401" type="Multiply" version="opset1">
			<data auto_broadcast="numpy"/>
			<input>
				<port id="0" precision="I64"/>
				<port id="1" precision="I64"/>
			</input>
			<output>
				<port id="2" names="848" precision="I64"/>
			</output>
		</layer>
		<layer id="367" name="Unsqueeze_402/Dims" type="Const" version="opset1">
			<data element_type="i64" offset="264212" shape="1" size="8"/>
			<output>
				<port id="0" precision="I64">
					<dim>1</dim>
				</port>
			</output>
		</layer>
		<layer id="368" name="Unsqueeze_402/Unsqueeze" type="Unsqueeze" version="opset1">
			<input>
				<port id="0" precision="I64"/>
				<port id="1" precision="I64">
					<dim>1</dim>
				</port>
			</input>
			<output>
				<port id="2" names="851" precision="I64">
					<dim>1</dim>
				</port>
			</output>
		</layer>
		<layer id="369" name="3229" type="Const" version="opset1">
			<data element_type="i64" offset="8" shape="1" size="8"/>
			<output>
				<port id="0" names="3229" precision="I64">
					<dim>1</dim>
				</port>
			</output>
		</layer>
		<layer id="370" name="3230" type="Const" version="opset1">
			<data element_type="i64" offset="328340" shape="1" size="8"/>
			<output>
				<port id="0" names="3230" precision="I64">
					<dim>1</dim>
				</port>
			</output>
		</layer>
		<layer id="371" name="Shape_395" type="ShapeOf" version="opset3">
			<data output_type="i64"/>
			<input>
				<port id="0" precision="FP32">
					<dim>1</dim>
					<dim>64</dim>
					<dim>64</dim>
					<dim>8</dim>
				</port>
			</input>
			<output>
				<port id="1" names="842" precision="I64">
					<dim>4</dim>
				</port>
			</output>
		</layer>
		<layer id="372" name="Constant_396" type="Const" version="opset1">
			<data element_type="i32" offset="264224" shape="" size="4"/>
			<output>
				<port id="0" names="843" precision="I32"/>
			</output>
		</layer>
		<layer id="373" name="Gather_397/axis" type="Const" version="opset1">
			<data element_type="i64" offset="264212" shape="" size="8"/>
			<output>
				<port id="0" precision="I64"/>
			</output>
		</layer>
		<layer id="374" name="Gather_3973959" type="Gather" version="opset7">
			<data batch_dims="0"/>
			<input>
				<port id="0" precision="I64">
					<dim>4</dim>
				</port>
				<port id="1" precision="I32"/>
				<port id="2" precision="I64"/>
			</input>
			<output>
				<port id="3" names="844" precision="I64"/>
			</output>
		</layer>
		<layer id="375" name="Unsqueeze_403/Dims" type="Const" version="opset1">
			<data element_type="i64" offset="264212" shape="1" size="8"/>
			<output>
				<port id="0" precision="I64">
					<dim>1</dim>
				</port>
			</output>
		</layer>
		<layer id="376" name="Unsqueeze_403/Unsqueeze" type="Unsqueeze" version="opset1">
			<input>
				<port id="0" precision="I64"/>
				<port id="1" precision="I64">
					<dim>1</dim>
				</port>
			</input>
			<output>
				<port id="2" names="854" precision="I64">
					<dim>1</dim>
				</port>
			</output>
		</layer>
		<layer id="377" name="Concat_404" type="Concat" version="opset1">
			<data axis="0"/>
			<input>
				<port id="0" precision="I64">
					<dim>1</dim>
				</port>
				<port id="1" precision="I64">
					<dim>1</dim>
				</port>
				<port id="2" precision="I64">
					<dim>1</dim>
				</port>
				<port id="3" precision="I64">
					<dim>1</dim>
				</port>
			</input>
			<output>
				<port id="4" names="855" precision="I64">
					<dim>4</dim>
				</port>
			</output>
		</layer>
		<layer id="378" name="Reshape_405" type="Reshape" version="opset1">
			<data special_zero="true"/>
			<input>
				<port id="0" precision="FP32">
					<dim>1</dim>
					<dim>64</dim>
					<dim>64</dim>
					<dim>8</dim>
				</port>
				<port id="1" precision="I64">
					<dim>4</dim>
				</port>
			</input>
			<output>
				<port id="2" names="856" precision="FP32">
					<dim>64</dim>
					<dim>2</dim>
					<dim>32</dim>
					<dim>8</dim>
				</port>
			</output>
		</layer>
		<layer id="379" name="2865" type="Const" version="opset1">
			<data element_type="i64" offset="328348" shape="4" size="32"/>
			<output>
				<port id="0" precision="I64">
					<dim>4</dim>
				</port>
			</output>
		</layer>
		<layer id="380" name="Transpose_416" type="Transpose" version="opset1">
			<input>
				<port id="0" precision="FP32">
					<dim>64</dim>
					<dim>2</dim>
					<dim>32</dim>
					<dim>8</dim>
				</port>
				<port id="1" precision="I64">
					<dim>4</dim>
				</port>
			</input>
			<output>
				<port id="2" names="875" precision="FP32">
					<dim>64</dim>
					<dim>2</dim>
					<dim>8</dim>
					<dim>32</dim>
				</port>
			</output>
		</layer>
		<layer id="381" name="Concat_371" type="Concat" version="opset1">
			<data axis="3"/>
			<input>
				<port id="0" precision="FP32">
					<dim>1</dim>
					<dim>64</dim>
					<dim>64</dim>
					<dim>22</dim>
				</port>
				<port id="1" precision="FP32">
					<dim>1</dim>
					<dim>64</dim>
					<dim>64</dim>
					<dim>8</dim>
				</port>
			</input>
			<output>
				<port id="2" names="814" precision="FP32">
					<dim>1</dim>
					<dim>64</dim>
					<dim>64</dim>
					<dim>30</dim>
				</port>
			</output>
		</layer>
		<layer id="382" name="Mul_406" type="Multiply" version="opset1">
			<data auto_broadcast="numpy"/>
			<input>
				<port id="0" precision="I64"/>
				<port id="1" precision="I64"/>
			</input>
			<output>
				<port id="2" names="857" precision="I64"/>
			</output>
		</layer>
		<layer id="383" name="Unsqueeze_407/Dims" type="Const" version="opset1">
			<data element_type="i64" offset="264212" shape="1" size="8"/>
			<output>
				<port id="0" precision="I64">
					<dim>1</dim>
				</port>
			</output>
		</layer>
		<layer id="384" name="Unsqueeze_407/Unsqueeze" type="Unsqueeze" version="opset1">
			<input>
				<port id="0" precision="I64"/>
				<port id="1" precision="I64">
					<dim>1</dim>
				</port>
			</input>
			<output>
				<port id="2" names="860" precision="I64">
					<dim>1</dim>
				</port>
			</output>
		</layer>
		<layer id="385" name="3231" type="Const" version="opset1">
			<data element_type="i64" offset="8" shape="1" size="8"/>
			<output>
				<port id="0" names="3231" precision="I64">
					<dim>1</dim>
				</port>
			</output>
		</layer>
		<layer id="386" name="3232" type="Const" version="opset1">
			<data element_type="i64" offset="328340" shape="1" size="8"/>
			<output>
				<port id="0" names="3232" precision="I64">
					<dim>1</dim>
				</port>
			</output>
		</layer>
		<layer id="387" name="Shape_398" type="ShapeOf" version="opset3">
			<data output_type="i64"/>
			<input>
				<port id="0" precision="FP32">
					<dim>1</dim>
					<dim>64</dim>
					<dim>64</dim>
					<dim>30</dim>
				</port>
			</input>
			<output>
				<port id="1" names="845" precision="I64">
					<dim>4</dim>
				</port>
			</output>
		</layer>
		<layer id="388" name="Constant_399" type="Const" version="opset1">
			<data element_type="i32" offset="264224" shape="" size="4"/>
			<output>
				<port id="0" names="846" precision="I32"/>
			</output>
		</layer>
		<layer id="389" name="Gather_400/axis" type="Const" version="opset1">
			<data element_type="i64" offset="264212" shape="" size="8"/>
			<output>
				<port id="0" precision="I64"/>
			</output>
		</layer>
		<layer id="390" name="Gather_4003997" type="Gather" version="opset7">
			<data batch_dims="0"/>
			<input>
				<port id="0" precision="I64">
					<dim>4</dim>
				</port>
				<port id="1" precision="I32"/>
				<port id="2" precision="I64"/>
			</input>
			<output>
				<port id="3" names="847" precision="I64"/>
			</output>
		</layer>
		<layer id="391" name="Unsqueeze_408/Dims" type="Const" version="opset1">
			<data element_type="i64" offset="264212" shape="1" size="8"/>
			<output>
				<port id="0" precision="I64">
					<dim>1</dim>
				</port>
			</output>
		</layer>
		<layer id="392" name="Unsqueeze_408/Unsqueeze" type="Unsqueeze" version="opset1">
			<input>
				<port id="0" precision="I64"/>
				<port id="1" precision="I64">
					<dim>1</dim>
				</port>
			</input>
			<output>
				<port id="2" names="863" precision="I64">
					<dim>1</dim>
				</port>
			</output>
		</layer>
		<layer id="393" name="Concat_409" type="Concat" version="opset1">
			<data axis="0"/>
			<input>
				<port id="0" precision="I64">
					<dim>1</dim>
				</port>
				<port id="1" precision="I64">
					<dim>1</dim>
				</port>
				<port id="2" precision="I64">
					<dim>1</dim>
				</port>
				<port id="3" precision="I64">
					<dim>1</dim>
				</port>
			</input>
			<output>
				<port id="4" names="864" precision="I64">
					<dim>4</dim>
				</port>
			</output>
		</layer>
		<layer id="394" name="Reshape_410" type="Reshape" version="opset1">
			<data special_zero="true"/>
			<input>
				<port id="0" precision="FP32">
					<dim>1</dim>
					<dim>64</dim>
					<dim>64</dim>
					<dim>30</dim>
				</port>
				<port id="1" precision="I64">
					<dim>4</dim>
				</port>
			</input>
			<output>
				<port id="2" precision="FP32">
					<dim>64</dim>
					<dim>2</dim>
					<dim>32</dim>
					<dim>30</dim>
				</port>
			</output>
		</layer>
		<layer id="395" name="Div_422_copy/const58819" type="Const" version="opset1">
			<data element_type="f32" offset="586612" shape="1, 2, 1, 1" size="8"/>
			<output>
				<port id="0" precision="FP32">
					<dim>1</dim>
					<dim>2</dim>
					<dim>1</dim>
					<dim>1</dim>
				</port>
			</output>
		</layer>
		<layer id="396" name="Div_422_copy" type="Multiply" version="opset1">
			<data auto_broadcast="numpy"/>
			<input>
				<port id="0" precision="FP32">
					<dim>64</dim>
					<dim>2</dim>
					<dim>32</dim>
					<dim>30</dim>
				</port>
				<port id="1" precision="FP32">
					<dim>1</dim>
					<dim>2</dim>
					<dim>1</dim>
					<dim>1</dim>
				</port>
			</input>
			<output>
				<port id="2" names="865" precision="FP32">
					<dim>64</dim>
					<dim>2</dim>
					<dim>32</dim>
					<dim>30</dim>
				</port>
			</output>
		</layer>
		<layer id="397" name="MatMul_420" type="MatMul" version="opset1">
			<data transpose_a="false" transpose_b="false"/>
			<input>
				<port id="0" precision="FP32">
					<dim>64</dim>
					<dim>2</dim>
					<dim>8</dim>
					<dim>32</dim>
				</port>
				<port id="1" precision="FP32">
					<dim>64</dim>
					<dim>2</dim>
					<dim>32</dim>
					<dim>30</dim>
				</port>
			</input>
			<output>
				<port id="2" names="881" precision="FP32">
					<dim>64</dim>
					<dim>2</dim>
					<dim>8</dim>
					<dim>30</dim>
				</port>
			</output>
		</layer>
		<layer id="398" name="ConstantOfShape_427/Broadcast/FillValue" type="Const" version="opset1">
			<data element_type="f32" offset="328384" shape="1" size="4"/>
			<output>
				<port id="0" precision="FP32">
					<dim>1</dim>
				</port>
			</output>
		</layer>
		<layer id="399" name="Constant_423" type="Const" version="opset1">
			<data element_type="i64" offset="264212" shape="" size="8"/>
			<output>
				<port id="0" names="882" precision="I64"/>
			</output>
		</layer>
		<layer id="400" name="Sub_424" type="Subtract" version="opset1">
			<data auto_broadcast="numpy"/>
			<input>
				<port id="0" precision="I64"/>
				<port id="1" precision="I64"/>
			</input>
			<output>
				<port id="2" names="883" precision="I64"/>
			</output>
		</layer>
		<layer id="401" name="Unsqueeze_425/Dims" type="Const" version="opset1">
			<data element_type="i64" offset="264212" shape="1" size="8"/>
			<output>
				<port id="0" precision="I64">
					<dim>1</dim>
				</port>
			</output>
		</layer>
		<layer id="402" name="Unsqueeze_425/Unsqueeze" type="Unsqueeze" version="opset1">
			<input>
				<port id="0" precision="I64"/>
				<port id="1" precision="I64">
					<dim>1</dim>
				</port>
			</input>
			<output>
				<port id="2" names="885" precision="I64">
					<dim>1</dim>
				</port>
			</output>
		</layer>
		<layer id="403" name="3235" type="Const" version="opset1">
			<data element_type="i64" offset="586620" shape="1" size="8"/>
			<output>
				<port id="0" names="3235" precision="I64">
					<dim>1</dim>
				</port>
			</output>
		</layer>
		<layer id="404" name="Concat_426" type="Concat" version="opset1">
			<data axis="0"/>
			<input>
				<port id="0" precision="I64">
					<dim>1</dim>
				</port>
				<port id="1" precision="I64">
					<dim>1</dim>
				</port>
			</input>
			<output>
				<port id="2" names="887" precision="I64">
					<dim>2</dim>
				</port>
			</output>
		</layer>
		<layer id="405" name="ConstantOfShape_427/Broadcast" type="Broadcast" version="opset3">
			<data mode="numpy"/>
			<input>
				<port id="0" precision="FP32">
					<dim>1</dim>
				</port>
				<port id="1" precision="I64">
					<dim>2</dim>
				</port>
			</input>
			<output>
				<port id="2" names="888" precision="FP32">
					<dim>8</dim>
					<dim>23</dim>
				</port>
			</output>
		</layer>
		<layer id="406" name="3237" type="Const" version="opset1">
			<data element_type="i64" offset="264212" shape="1" size="8"/>
			<output>
				<port id="0" names="3237" precision="I64">
					<dim>1</dim>
				</port>
			</output>
		</layer>
		<layer id="407" name="Unsqueeze_430/Dims" type="Const" version="opset1">
			<data element_type="i64" offset="264212" shape="1" size="8"/>
			<output>
				<port id="0" precision="I64">
					<dim>1</dim>
				</port>
			</output>
		</layer>
		<layer id="408" name="Unsqueeze_430/Unsqueeze" type="Unsqueeze" version="opset1">
			<input>
				<port id="0" precision="I64"/>
				<port id="1" precision="I64">
					<dim>1</dim>
				</port>
			</input>
			<output>
				<port id="2" names="894" precision="I64">
					<dim>1</dim>
				</port>
			</output>
		</layer>
		<layer id="409" name="Concat_431" type="Concat" version="opset1">
			<data axis="0"/>
			<input>
				<port id="0" precision="I64">
					<dim>1</dim>
				</port>
				<port id="1" precision="I64">
					<dim>1</dim>
				</port>
			</input>
			<output>
				<port id="2" names="895,903" precision="I64">
					<dim>2</dim>
				</port>
			</output>
		</layer>
		<layer id="410" name="ConstantOfShape_437/Broadcast/FillValue" type="Const" version="opset1">
			<data element_type="i64" offset="264212" shape="1" size="8"/>
			<output>
				<port id="0" precision="I64">
					<dim>1</dim>
				</port>
			</output>
		</layer>
		<layer id="411" name="3238" type="Const" version="opset1">
			<data element_type="i64" offset="328396" shape="1" size="8"/>
			<output>
				<port id="0" names="3238" precision="I64">
					<dim>1</dim>
				</port>
			</output>
		</layer>
		<layer id="412" name="3236" type="Const" version="opset1">
			<data element_type="i64" offset="264212" shape="1" size="8"/>
			<output>
				<port id="0" names="3236" precision="I64">
					<dim>1</dim>
				</port>
			</output>
		</layer>
		<layer id="413" name="Unsqueeze_428/Dims" type="Const" version="opset1">
			<data element_type="i64" offset="264212" shape="1" size="8"/>
			<output>
				<port id="0" precision="I64">
					<dim>1</dim>
				</port>
			</output>
		</layer>
		<layer id="414" name="Unsqueeze_428/Unsqueeze" type="Unsqueeze" version="opset1">
			<input>
				<port id="0" precision="I64"/>
				<port id="1" precision="I64">
					<dim>1</dim>
				</port>
			</input>
			<output>
				<port id="2" names="891" precision="I64">
					<dim>1</dim>
				</port>
			</output>
		</layer>
		<layer id="415" name="Concat_429" type="Concat" version="opset1">
			<data axis="0"/>
			<input>
				<port id="0" precision="I64">
					<dim>1</dim>
				</port>
				<port id="1" precision="I64">
					<dim>1</dim>
				</port>
			</input>
			<output>
				<port id="2" names="892" precision="I64">
					<dim>2</dim>
				</port>
			</output>
		</layer>
		<layer id="416" name="Shape_433" type="ShapeOf" version="opset3">
			<data output_type="i64"/>
			<input>
				<port id="0" precision="I64">
					<dim>2</dim>
				</port>
			</input>
			<output>
				<port id="1" names="897" precision="I64">
					<dim>1</dim>
				</port>
			</output>
		</layer>
		<layer id="417" name="Constant_432" type="Const" version="opset1">
			<data element_type="i32" offset="264208" shape="1" size="4"/>
			<output>
				<port id="0" names="896" precision="I32">
					<dim>1</dim>
				</port>
			</output>
		</layer>
		<layer id="418" name="Gather_434/axis" type="Const" version="opset1">
			<data element_type="i64" offset="264212" shape="" size="8"/>
			<output>
				<port id="0" precision="I64"/>
			</output>
		</layer>
		<layer id="419" name="Gather_4343893" type="Gather" version="opset7">
			<data batch_dims="0"/>
			<input>
				<port id="0" precision="I64">
					<dim>1</dim>
				</port>
				<port id="1" precision="I32">
					<dim>1</dim>
				</port>
				<port id="2" precision="I64"/>
			</input>
			<output>
				<port id="3" names="898" precision="I64">
					<dim>1</dim>
				</port>
			</output>
		</layer>
		<layer id="420" name="Sub_435" type="Subtract" version="opset1">
			<data auto_broadcast="numpy"/>
			<input>
				<port id="0" precision="I64">
					<dim>1</dim>
				</port>
				<port id="1" precision="I64">
					<dim>1</dim>
				</port>
			</input>
			<output>
				<port id="2" names="902" precision="I64">
					<dim>1</dim>
				</port>
			</output>
		</layer>
		<layer id="421" name="ConstantOfShape_437/Broadcast" type="Broadcast" version="opset3">
			<data mode="numpy"/>
			<input>
				<port id="0" precision="I64">
					<dim>1</dim>
				</port>
				<port id="1" precision="I64">
					<dim>1</dim>
				</port>
			</input>
			<output>
				<port id="2" names="904" precision="I64">
					<dim>2</dim>
				</port>
			</output>
		</layer>
		<layer id="422" name="Concat_438" type="Concat" version="opset1">
			<data axis="0"/>
			<input>
				<port id="0" precision="I64">
					<dim>2</dim>
				</port>
				<port id="1" precision="I64">
					<dim>2</dim>
				</port>
			</input>
			<output>
				<port id="2" names="905" precision="I64">
					<dim>4</dim>
				</port>
			</output>
		</layer>
		<layer id="423" name="Constant_439" type="Const" version="opset1">
			<data element_type="i64" offset="328404" shape="2" size="16"/>
			<output>
				<port id="0" names="906" precision="I64">
					<dim>2</dim>
				</port>
			</output>
		</layer>
		<layer id="424" name="Reshape_440" type="Reshape" version="opset1">
			<data special_zero="true"/>
			<input>
				<port id="0" precision="I64">
					<dim>4</dim>
				</port>
				<port id="1" precision="I64">
					<dim>2</dim>
				</port>
			</input>
			<output>
				<port id="2" names="907" precision="I64">
					<dim>2</dim>
					<dim>2</dim>
				</port>
			</output>
		</layer>
		<layer id="425" name="Slice_445/Concat29686142363" type="Const" version="opset1">
			<data element_type="i64" offset="328420" shape="2" size="16"/>
			<output>
				<port id="0" precision="I64">
					<dim>2</dim>
				</port>
			</output>
		</layer>
		<layer id="426" name="Slice_445/Concat2967429687139414" type="Const" version="opset1">
			<data element_type="i64" offset="328436" shape="2" size="16"/>
			<output>
				<port id="0" precision="I64">
					<dim>2</dim>
				</port>
			</output>
		</layer>
		<layer id="427" name="Slice_445/Strides29688139309" type="Const" version="opset1">
			<data element_type="i64" offset="328452" shape="2" size="16"/>
			<output>
				<port id="0" precision="I64">
					<dim>2</dim>
				</port>
			</output>
		</layer>
		<layer id="428" name="Slice_445" type="StridedSlice" version="opset1">
			<data begin_mask="0, 1" ellipsis_mask="0, 0" end_mask="0, 1" new_axis_mask="0, 0" shrink_axis_mask="0, 0"/>
			<input>
				<port id="0" precision="I64">
					<dim>2</dim>
					<dim>2</dim>
				</port>
				<port id="1" precision="I64">
					<dim>2</dim>
				</port>
				<port id="2" precision="I64">
					<dim>2</dim>
				</port>
				<port id="3" precision="I64">
					<dim>2</dim>
				</port>
			</input>
			<output>
				<port id="4" names="912" precision="I64">
					<dim>2</dim>
					<dim>2</dim>
				</port>
			</output>
		</layer>
		<layer id="429" name="2863" type="Const" version="opset1">
			<data element_type="i64" offset="328468" shape="2" size="16"/>
			<output>
				<port id="0" precision="I64">
					<dim>2</dim>
				</port>
			</output>
		</layer>
		<layer id="430" name="Transpose_446" type="Transpose" version="opset1">
			<input>
				<port id="0" precision="I64">
					<dim>2</dim>
					<dim>2</dim>
				</port>
				<port id="1" precision="I64">
					<dim>2</dim>
				</port>
			</input>
			<output>
				<port id="2" names="913" precision="I64">
					<dim>2</dim>
					<dim>2</dim>
				</port>
			</output>
		</layer>
		<layer id="431" name="Constant_447" type="Const" version="opset1">
			<data element_type="i64" offset="328484" shape="1" size="8"/>
			<output>
				<port id="0" names="914" precision="I64">
					<dim>1</dim>
				</port>
			</output>
		</layer>
		<layer id="432" name="Reshape_448" type="Reshape" version="opset1">
			<data special_zero="true"/>
			<input>
				<port id="0" precision="I64">
					<dim>2</dim>
					<dim>2</dim>
				</port>
				<port id="1" precision="I64">
					<dim>1</dim>
				</port>
			</input>
			<output>
				<port id="2" names="915,916" precision="I64">
					<dim>4</dim>
				</port>
			</output>
		</layer>
		<layer id="433" name="3558_input_port_1/value" type="Const" version="opset1">
			<data element_type="i64" offset="264212" shape="" size="8"/>
			<output>
				<port id="0" precision="I64"/>
			</output>
		</layer>
		<layer id="434" name="3558" type="Split" version="opset1">
			<data num_splits="2"/>
			<input>
				<port id="0" precision="I64">
					<dim>4</dim>
				</port>
				<port id="1" precision="I64"/>
			</input>
			<output>
				<port id="2" precision="I64">
					<dim>2</dim>
				</port>
				<port id="3" precision="I64">
					<dim>2</dim>
				</port>
			</output>
		</layer>
		<layer id="435" name="Constant_450" type="Const" version="opset1">
			<data element_type="f32" offset="264208" shape="" size="4"/>
			<output>
				<port id="0" names="917" precision="FP32"/>
			</output>
		</layer>
		<layer id="436" name="Pad_451" type="Pad" version="opset1">
			<data pad_mode="constant"/>
			<input>
				<port id="0" precision="FP32">
					<dim>8</dim>
					<dim>23</dim>
				</port>
				<port id="1" precision="I64">
					<dim>2</dim>
				</port>
				<port id="2" precision="I64">
					<dim>2</dim>
				</port>
				<port id="3" precision="FP32"/>
			</input>
			<output>
				<port id="4" names="918" precision="FP32">
					<dim>8</dim>
					<dim>31</dim>
				</port>
			</output>
		</layer>
		<layer id="437" name="Constant_452" type="Const" version="opset1">
…
		<edge from-layer="3024" from-port="0" to-layer="3025" to-port="2"/>
		<edge from-layer="3025" from-port="3" to-layer="3026" to-port="3"/>
		<edge from-layer="3026" from-port="4" to-layer="3028" to-port="2"/>
		<edge from-layer="3027" from-port="0" to-layer="3028" to-port="3"/>
		<edge from-layer="3028" from-port="4" to-layer="3029" to-port="0"/>
		<edge from-layer="3030" from-port="0" to-layer="3047" to-port="0"/>
		<edge from-layer="3031" from-port="0" to-layer="3047" to-port="1"/>
		<edge from-layer="3032" from-port="0" to-layer="3047" to-port="2"/>
		<edge from-layer="3033" from-port="0" to-layer="3042" to-port="0"/>
		<edge from-layer="3034" from-port="1" to-layer="3037" to-port="0"/>
		<edge from-layer="3035" from-port="0" to-layer="3037" to-port="1"/>
		<edge from-layer="3036" from-port="0" to-layer="3037" to-port="2"/>
		<edge from-layer="3037" from-port="3" to-layer="3039" to-port="0"/>
		<edge from-layer="3038" from-port="0" to-layer="3039" to-port="1"/>
		<edge from-layer="3039" from-port="2" to-layer="3041" to-port="0"/>
		<edge from-layer="3040" from-port="0" to-layer="3041" to-port="1"/>
		<edge from-layer="3041" from-port="2" to-layer="3042" to-port="1"/>
		<edge from-layer="3042" from-port="2" to-layer="3043" to-port="0"/>
		<edge from-layer="3042" from-port="2" to-layer="3052" to-port="0"/>
		<edge from-layer="3043" from-port="1" to-layer="3046" to-port="0"/>
		<edge from-layer="3044" from-port="0" to-layer="3046" to-port="1"/>
		<edge from-layer="3045" from-port="0" to-layer="3046" to-port="2"/>
		<edge from-layer="3046" from-port="3" to-layer="3047" to-port="3"/>
		<edge from-layer="3047" from-port="4" to-layer="3059" to-port="1"/>
		<edge from-layer="3048" from-port="0" to-layer="3057" to-port="0"/>
		<edge from-layer="3049" from-port="0" to-layer="3057" to-port="1"/>
		<edge from-layer="3050" from-port="0" to-layer="3057" to-port="2"/>
		<edge from-layer="3051" from-port="0" to-layer="3052" to-port="1"/>
		<edge from-layer="3052" from-port="2" to-layer="3053" to-port="0"/>
		<edge from-layer="3053" from-port="1" to-layer="3056" to-port="0"/>
		<edge from-layer="3054" from-port="0" to-layer="3056" to-port="1"/>
		<edge from-layer="3055" from-port="0" to-layer="3056" to-port="2"/>
		<edge from-layer="3056" from-port="3" to-layer="3057" to-port="3"/>
		<edge from-layer="3057" from-port="4" to-layer="3059" to-port="2"/>
		<edge from-layer="3058" from-port="0" to-layer="3059" to-port="3"/>
		<edge from-layer="3059" from-port="4" to-layer="3060" to-port="0"/>
		<edge from-layer="3061" from-port="0" to-layer="3078" to-port="0"/>
		<edge from-layer="3062" from-port="0" to-layer="3078" to-port="1"/>
		<edge from-layer="3063" from-port="0" to-layer="3078" to-port="2"/>
		<edge from-layer="3064" from-port="0" to-layer="3073" to-port="0"/>
		<edge from-layer="3065" from-port="1" to-layer="3068" to-port="0"/>
		<edge from-layer="3066" from-port="0" to-layer="3068" to-port="1"/>
		<edge from-layer="3067" from-port="0" to-layer="3068" to-port="2"/>
		<edge from-layer="3068" from-port="3" to-layer="3070" to-port="0"/>
		<edge from-layer="3069" from-port="0" to-layer="3070" to-port="1"/>
		<edge from-layer="3070" from-port="2" to-layer="3072" to-port="0"/>
		<edge from-layer="3071" from-port="0" to-layer="3072" to-port="1"/>
		<edge from-layer="3072" from-port="2" to-layer="3073" to-port="1"/>
		<edge from-layer="3073" from-port="2" to-layer="3083" to-port="0"/>
		<edge from-layer="3073" from-port="2" to-layer="3074" to-port="0"/>
		<edge from-layer="3074" from-port="1" to-layer="3077" to-port="0"/>
		<edge from-layer="3075" from-port="0" to-layer="3077" to-port="1"/>
		<edge from-layer="3076" from-port="0" to-layer="3077" to-port="2"/>
		<edge from-layer="3077" from-port="3" to-layer="3078" to-port="3"/>
		<edge from-layer="3078" from-port="4" to-layer="3090" to-port="1"/>
		<edge from-layer="3079" from-port="0" to-layer="3088" to-port="0"/>
		<edge from-layer="3080" from-port="0" to-layer="3088" to-port="1"/>
		<edge from-layer="3081" from-port="0" to-layer="3088" to-port="2"/>
		<edge from-layer="3082" from-port="0" to-layer="3083" to-port="1"/>
		<edge from-layer="3083" from-port="2" to-layer="3084" to-port="0"/>
		<edge from-layer="3084" from-port="1" to-layer="3087" to-port="0"/>
		<edge from-layer="3085" from-port="0" to-layer="3087" to-port="1"/>
		<edge from-layer="3086" from-port="0" to-layer="3087" to-port="2"/>
		<edge from-layer="3087" from-port="3" to-layer="3088" to-port="3"/>
		<edge from-layer="3088" from-port="4" to-layer="3090" to-port="2"/>
		<edge from-layer="3089" from-port="0" to-layer="3090" to-port="3"/>
		<edge from-layer="3090" from-port="4" to-layer="3091" to-port="0"/>
		<edge from-layer="3092" from-port="0" to-layer="3109" to-port="0"/>
		<edge from-layer="3093" from-port="0" to-layer="3109" to-port="1"/>
		<edge from-layer="3094" from-port="0" to-layer="3109" to-port="2"/>
		<edge from-layer="3095" from-port="0" to-layer="3104" to-port="0"/>
		<edge from-layer="3096" from-port="1" to-layer="3099" to-port="0"/>
		<edge from-layer="3097" from-port="0" to-layer="3099" to-port="1"/>
		<edge from-layer="3098" from-port="0" to-layer="3099" to-port="2"/>
		<edge from-layer="3099" from-port="3" to-layer="3101" to-port="0"/>
		<edge from-layer="3100" from-port="0" to-layer="3101" to-port="1"/>
		<edge from-layer="3101" from-port="2" to-layer="3103" to-port="0"/>
		<edge from-layer="3102" from-port="0" to-layer="3103" to-port="1"/>
		<edge from-layer="3103" from-port="2" to-layer="3104" to-port="1"/>
		<edge from-layer="3104" from-port="2" to-layer="3114" to-port="0"/>
		<edge from-layer="3104" from-port="2" to-layer="3105" to-port="0"/>
		<edge from-layer="3105" from-port="1" to-layer="3108" to-port="0"/>
		<edge from-layer="3106" from-port="0" to-layer="3108" to-port="1"/>
		<edge from-layer="3107" from-port="0" to-layer="3108" to-port="2"/>
		<edge from-layer="3108" from-port="3" to-layer="3109" to-port="3"/>
		<edge from-layer="3109" from-port="4" to-layer="3121" to-port="1"/>
		<edge from-layer="3110" from-port="0" to-layer="3119" to-port="0"/>
		<edge from-layer="3111" from-port="0" to-layer="3119" to-port="1"/>
		<edge from-layer="3112" from-port="0" to-layer="3119" to-port="2"/>
		<edge from-layer="3113" from-port="0" to-layer="3114" to-port="1"/>
		<edge from-layer="3114" from-port="2" to-layer="3115" to-port="0"/>
		<edge from-layer="3115" from-port="1" to-layer="3118" to-port="0"/>
		<edge from-layer="3116" from-port="0" to-layer="3118" to-port="1"/>
		<edge from-layer="3117" from-port="0" to-layer="3118" to-port="2"/>
		<edge from-layer="3118" from-port="3" to-layer="3119" to-port="3"/>
		<edge from-layer="3119" from-port="4" to-layer="3121" to-port="2"/>
		<edge from-layer="3120" from-port="0" to-layer="3121" to-port="3"/>
		<edge from-layer="3121" from-port="4" to-layer="3122" to-port="0"/>
		<edge from-layer="3123" from-port="0" to-layer="3140" to-port="0"/>
		<edge from-layer="3124" from-port="0" to-layer="3140" to-port="1"/>
		<edge from-layer="3125" from-port="0" to-layer="3140" to-port="2"/>
		<edge from-layer="3126" from-port="0" to-layer="3135" to-port="0"/>
		<edge from-layer="3127" from-port="1" to-layer="3130" to-port="0"/>
		<edge from-layer="3128" from-port="0" to-layer="3130" to-port="1"/>
		<edge from-layer="3129" from-port="0" to-layer="3130" to-port="2"/>
		<edge from-layer="3130" from-port="3" to-layer="3132" to-port="0"/>
		<edge from-layer="3131" from-port="0" to-layer="3132" to-port="1"/>
		<edge from-layer="3132" from-port="2" to-layer="3134" to-port="0"/>
		<edge from-layer="3133" from-port="0" to-layer="3134" to-port="1"/>
		<edge from-layer="3134" from-port="2" to-layer="3135" to-port="1"/>
		<edge from-layer="3135" from-port="2" to-layer="3136" to-port="0"/>
		<edge from-layer="3135" from-port="2" to-layer="3145" to-port="0"/>
		<edge from-layer="3136" from-port="1" to-layer="3139" to-port="0"/>
		<edge from-layer="3137" from-port="0" to-layer="3139" to-port="1"/>
		<edge from-layer="3138" from-port="0" to-layer="3139" to-port="2"/>
		<edge from-layer="3139" from-port="3" to-layer="3140" to-port="3"/>
		<edge from-layer="3140" from-port="4" to-layer="3152" to-port="1"/>
		<edge from-layer="3141" from-port="0" to-layer="3150" to-port="0"/>
		<edge from-layer="3142" from-port="0" to-layer="3150" to-port="1"/>
		<edge from-layer="3143" from-port="0" to-layer="3150" to-port="2"/>
		<edge from-layer="3144" from-port="0" to-layer="3145" to-port="1"/>
		<edge from-layer="3145" from-port="2" to-layer="3146" to-port="0"/>
		<edge from-layer="3146" from-port="1" to-layer="3149" to-port="0"/>
		<edge from-layer="3147" from-port="0" to-layer="3149" to-port="1"/>
		<edge from-layer="3148" from-port="0" to-layer="3149" to-port="2"/>
		<edge from-layer="3149" from-port="3" to-layer="3150" to-port="3"/>
		<edge from-layer="3150" from-port="4" to-layer="3152" to-port="2"/>
		<edge from-layer="3151" from-port="0" to-layer="3152" to-port="3"/>
		<edge from-layer="3152" from-port="4" to-layer="3153" to-port="0"/>
		<edge from-layer="3154" from-port="0" to-layer="3171" to-port="0"/>
		<edge from-layer="3155" from-port="0" to-layer="3171" to-port="1"/>
		<edge from-layer="3156" from-port="0" to-layer="3171" to-port="2"/>
		<edge from-layer="3157" from-port="0" to-layer="3166" to-port="0"/>
		<edge from-layer="3158" from-port="1" to-layer="3161" to-port="0"/>
		<edge from-layer="3159" from-port="0" to-layer="3161" to-port="1"/>
		<edge from-layer="3160" from-port="0" to-layer="3161" to-port="2"/>
		<edge from-layer="3161" from-port="3" to-layer="3163" to-port="0"/>
		<edge from-layer="3162" from-port="0" to-layer="3163" to-port="1"/>
		<edge from-layer="3163" from-port="2" to-layer="3165" to-port="0"/>
		<edge from-layer="3164" from-port="0" to-layer="3165" to-port="1"/>
		<edge from-layer="3165" from-port="2" to-layer="3166" to-port="1"/>
		<edge from-layer="3166" from-port="2" to-layer="3176" to-port="0"/>
		<edge from-layer="3166" from-port="2" to-layer="3167" to-port="0"/>
		<edge from-layer="3167" from-port="1" to-layer="3170" to-port="0"/>
		<edge from-layer="3168" from-port="0" to-layer="3170" to-port="1"/>
		<edge from-layer="3169" from-port="0" to-layer="3170" to-port="2"/>
		<edge from-layer="3170" from-port="3" to-layer="3171" to-port="3"/>
		<edge from-layer="3171" from-port="4" to-layer="3183" to-port="1"/>
		<edge from-layer="3172" from-port="0" to-layer="3181" to-port="0"/>
		<edge from-layer="3173" from-port="0" to-layer="3181" to-port="1"/>
		<edge from-layer="3174" from-port="0" to-layer="3181" to-port="2"/>
		<edge from-layer="3175" from-port="0" to-layer="3176" to-port="1"/>
		<edge from-layer="3176" from-port="2" to-layer="3177" to-port="0"/>
		<edge from-layer="3177" from-port="1" to-layer="3180" to-port="0"/>
		<edge from-layer="3178" from-port="0" to-layer="3180" to-port="1"/>
		<edge from-layer="3179" from-port="0" to-layer="3180" to-port="2"/>
		<edge from-layer="3180" from-port="3" to-layer="3181" to-port="3"/>
		<edge from-layer="3181" from-port="4" to-layer="3183" to-port="2"/>
		<edge from-layer="3182" from-port="0" to-layer="3183" to-port="3"/>
		<edge from-layer="3183" from-port="4" to-layer="3184" to-port="0"/>
		<edge from-layer="3185" from-port="0" to-layer="3202" to-port="0"/>
		<edge from-layer="3186" from-port="0" to-layer="3202" to-port="1"/>
		<edge from-layer="3187" from-port="0" to-layer="3202" to-port="2"/>
		<edge from-layer="3188" from-port="0" to-layer="3197" to-port="0"/>
		<edge from-layer="3189" from-port="1" to-layer="3192" to-port="0"/>
		<edge from-layer="3190" from-port="0" to-layer="3192" to-port="1"/>
		<edge from-layer="3191" from-port="0" to-layer="3192" to-port="2"/>
		<edge from-layer="3192" from-port="3" to-layer="3194" to-port="0"/>
		<edge from-layer="3193" from-port="0" to-layer="3194" to-port="1"/>
		<edge from-layer="3194" from-port="2" to-layer="3196" to-port="0"/>
		<edge from-layer="3195" from-port="0" to-layer="3196" to-port="1"/>
		<edge from-layer="3196" from-port="2" to-layer="3197" to-port="1"/>
		<edge from-layer="3197" from-port="2" to-layer="3198" to-port="0"/>
		<edge from-layer="3197" from-port="2" to-layer="3207" to-port="0"/>
		<edge from-layer="3198" from-port="1" to-layer="3201" to-port="0"/>
		<edge from-layer="3199" from-port="0" to-layer="3201" to-port="1"/>
		<edge from-layer="3200" from-port="0" to-layer="3201" to-port="2"/>
		<edge from-layer="3201" from-port="3" to-layer="3202" to-port="3"/>
		<edge from-layer="3202" from-port="4" to-layer="3214" to-port="1"/>
		<edge from-layer="3203" from-port="0" to-layer="3212" to-port="0"/>
		<edge from-layer="3204" from-port="0" to-layer="3212" to-port="1"/>
		<edge from-layer="3205" from-port="0" to-layer="3212" to-port="2"/>
		<edge from-layer="3206" from-port="0" to-layer="3207" to-port="1"/>
		<edge from-layer="3207" from-port="2" to-layer="3208" to-port="0"/>
		<edge from-layer="3208" from-port="1" to-layer="3211" to-port="0"/>
		<edge from-layer="3209" from-port="0" to-layer="3211" to-port="1"/>
		<edge from-layer="3210" from-port="0" to-layer="3211" to-port="2"/>
		<edge from-layer="3211" from-port="3" to-layer="3212" to-port="3"/>
		<edge from-layer="3212" from-port="4" to-layer="3214" to-port="2"/>
		<edge from-layer="3213" from-port="0" to-layer="3214" to-port="3"/>
		<edge from-layer="3214" from-port="4" to-layer="3215" to-port="0"/>
		<edge from-layer="3216" from-port="0" to-layer="3233" to-port="0"/>
		<edge from-layer="3217" from-port="0" to-layer="3233" to-port="1"/>
		<edge from-layer="3218" from-port="0" to-layer="3233" to-port="2"/>
		<edge from-layer="3219" from-port="0" to-layer="3228" to-port="0"/>
		<edge from-layer="3220" from-port="1" to-layer="3223" to-port="0"/>
		<edge from-layer="3221" from-port="0" to-layer="3223" to-port="1"/>
		<edge from-layer="3222" from-port="0" to-layer="3223" to-port="2"/>
		<edge from-layer="3223" from-port="3" to-layer="3225" to-port="0"/>
		<edge from-layer="3224" from-port="0" to-layer="3225" to-port="1"/>
		<edge from-layer="3225" from-port="2" to-layer="3227" to-port="0"/>
		<edge from-layer="3226" from-port="0" to-layer="3227" to-port="1"/>
		<edge from-layer="3227" from-port="2" to-layer="3228" to-port="1"/>
		<edge from-layer="3228" from-port="2" to-layer="3238" to-port="0"/>
		<edge from-layer="3228" from-port="2" to-layer="3229" to-port="0"/>
		<edge from-layer="3229" from-port="1" to-layer="3232" to-port="0"/>
		<edge from-layer="3230" from-port="0" to-layer="3232" to-port="1"/>
		<edge from-layer="3231" from-port="0" to-layer="3232" to-port="2"/>
		<edge from-layer="3232" from-port="3" to-layer="3233" to-port="3"/>
		<edge from-layer="3233" from-port="4" to-layer="3245" to-port="1"/>
		<edge from-layer="3234" from-port="0" to-layer="3243" to-port="0"/>
		<edge from-layer="3235" from-port="0" to-layer="3243" to-port="1"/>
		<edge from-layer="3236" from-port="0" to-layer="3243" to-port="2"/>
		<edge from-layer="3237" from-port="0" to-layer="3238" to-port="1"/>
		<edge from-layer="3238" from-port="2" to-layer="3239" to-port="0"/>
		<edge from-layer="3239" from-port="1" to-layer="3242" to-port="0"/>
		<edge from-layer="3240" from-port="0" to-layer="3242" to-port="1"/>
		<edge from-layer="3241" from-port="0" to-layer="3242" to-port="2"/>
		<edge from-layer="3242" from-port="3" to-layer="3243" to-port="3"/>
		<edge from-layer="3243" from-port="4" to-layer="3245" to-port="2"/>
		<edge from-layer="3244" from-port="0" to-layer="3245" to-port="3"/>
		<edge from-layer="3245" from-port="4" to-layer="3246" to-port="0"/>
		<edge from-layer="3247" from-port="0" to-layer="3264" to-port="0"/>
		<edge from-layer="3248" from-port="0" to-layer="3264" to-port="1"/>
		<edge from-layer="3249" from-port="0" to-layer="3264" to-port="2"/>
		<edge from-layer="3250" from-port="0" to-layer="3259" to-port="0"/>
		<edge from-layer="3251" from-port="1" to-layer="3254" to-port="0"/>
		<edge from-layer="3252" from-port="0" to-layer="3254" to-port="1"/>
		<edge from-layer="3253" from-port="0" to-layer="3254" to-port="2"/>
		<edge from-layer="3254" from-port="3" to-layer="3256" to-port="0"/>
		<edge from-layer="3255" from-port="0" to-layer="3256" to-port="1"/>
		<edge from-layer="3256" from-port="2" to-layer="3258" to-port="0"/>
		<edge from-layer="3257" from-port="0" to-layer="3258" to-port="1"/>
		<edge from-layer="3258" from-port="2" to-layer="3259" to-port="1"/>
		<edge from-layer="3259" from-port="2" to-layer="3269" to-port="0"/>
		<edge from-layer="3259" from-port="2" to-layer="3260" to-port="0"/>
		<edge from-layer="3260" from-port="1" to-layer="3263" to-port="0"/>
		<edge from-layer="3261" from-port="0" to-layer="3263" to-port="1"/>
		<edge from-layer="3262" from-port="0" to-layer="3263" to-port="2"/>
		<edge from-layer="3263" from-port="3" to-layer="3264" to-port="3"/>
		<edge from-layer="3264" from-port="4" to-layer="3276" to-port="1"/>
		<edge from-layer="3265" from-port="0" to-layer="3274" to-port="0"/>
		<edge from-layer="3266" from-port="0" to-layer="3274" to-port="1"/>
		<edge from-layer="3267" from-port="0" to-layer="3274" to-port="2"/>
		<edge from-layer="3268" from-port="0" to-layer="3269" to-port="1"/>
		<edge from-layer="3269" from-port="2" to-layer="3270" to-port="0"/>
		<edge from-layer="3270" from-port="1" to-layer="3273" to-port="0"/>
		<edge from-layer="3271" from-port="0" to-layer="3273" to-port="1"/>
		<edge from-layer="3272" from-port="0" to-layer="3273" to-port="2"/>
		<edge from-layer="3273" from-port="3" to-layer="3274" to-port="3"/>
		<edge from-layer="3274" from-port="4" to-layer="3276" to-port="2"/>
		<edge from-layer="3275" from-port="0" to-layer="3276" to-port="3"/>
		<edge from-layer="3276" from-port="4" to-layer="3277" to-port="0"/>
		<edge from-layer="3278" from-port="0" to-layer="3295" to-port="0"/>
		<edge from-layer="3279" from-port="0" to-layer="3295" to-port="1"/>
		<edge from-layer="3280" from-port="0" to-layer="3295" to-port="2"/>
		<edge from-layer="3281" from-port="0" to-layer="3290" to-port="0"/>
		<edge from-layer="3282" from-port="1" to-layer="3285" to-port="0"/>
		<edge from-layer="3283" from-port="0" to-layer="3285" to-port="1"/>
		<edge from-layer="3284" from-port="0" to-layer="3285" to-port="2"/>
		<edge from-layer="3285" from-port="3" to-layer="3287" to-port="0"/>
		<edge from-layer="3286" from-port="0" to-layer="3287" to-port="1"/>
		<edge from-layer="3287" from-port="2" to-layer="3289" to-port="0"/>
		<edge from-layer="3288" from-port="0" to-layer="3289" to-port="1"/>
		<edge from-layer="3289" from-port="2" to-layer="3290" to-port="1"/>
		<edge from-layer="3290" from-port="2" to-layer="3300" to-port="0"/>
		<edge from-layer="3290" from-port="2" to-layer="3291" to-port="0"/>
		<edge from-layer="3291" from-port="1" to-layer="3294" to-port="0"/>
		<edge from-layer="3292" from-port="0" to-layer="3294" to-port="1"/>
		<edge from-layer="3293" from-port="0" to-layer="3294" to-port="2"/>
		<edge from-layer="3294" from-port="3" to-layer="3295" to-port="3"/>
		<edge from-layer="3295" from-port="4" to-layer="3307" to-port="1"/>
		<edge from-layer="3296" from-port="0" to-layer="3305" to-port="0"/>
		<edge from-layer="3297" from-port="0" to-layer="3305" to-port="1"/>
		<edge from-layer="3298" from-port="0" to-layer="3305" to-port="2"/>
		<edge from-layer="3299" from-port="0" to-layer="3300" to-port="1"/>
		<edge from-layer="3300" from-port="2" to-layer="3301" to-port="0"/>
		<edge from-layer="3301" from-port="1" to-layer="3304" to-port="0"/>
		<edge from-layer="3302" from-port="0" to-layer="3304" to-port="1"/>
		<edge from-layer="3303" from-port="0" to-layer="3304" to-port="2"/>
		<edge from-layer="3304" from-port="3" to-layer="3305" to-port="3"/>
		<edge from-layer="3305" from-port="4" to-layer="3307" to-port="2"/>
		<edge from-layer="3306" from-port="0" to-layer="3307" to-port="3"/>
		<edge from-layer="3307" from-port="4" to-layer="3308" to-port="0"/>
		<edge from-layer="3309" from-port="0" to-layer="3326" to-port="0"/>
		<edge from-layer="3310" from-port="0" to-layer="3326" to-port="1"/>
		<edge from-layer="3311" from-port="0" to-layer="3326" to-port="2"/>
		<edge from-layer="3312" from-port="0" to-layer="3321" to-port="0"/>
		<edge from-layer="3313" from-port="1" to-layer="3316" to-port="0"/>
		<edge from-layer="3314" from-port="0" to-layer="3316" to-port="1"/>
		<edge from-layer="3315" from-port="0" to-layer="3316" to-port="2"/>
		<edge from-layer="3316" from-port="3" to-layer="3318" to-port="0"/>
		<edge from-layer="3317" from-port="0" to-layer="3318" to-port="1"/>
		<edge from-layer="3318" from-port="2" to-layer="3320" to-port="0"/>
		<edge from-layer="3319" from-port="0" to-layer="3320" to-port="1"/>
		<edge from-layer="3320" from-port="2" to-layer="3321" to-port="1"/>
		<edge from-layer="3321" from-port="2" to-layer="3331" to-port="0"/>
		<edge from-layer="3321" from-port="2" to-layer="3322" to-port="0"/>
		<edge from-layer="3322" from-port="1" to-layer="3325" to-port="0"/>
		<edge from-layer="3323" from-port="0" to-layer="3325" to-port="1"/>
		<edge from-layer="3324" from-port="0" to-layer="3325" to-port="2"/>
		<edge from-layer="3325" from-port="3" to-layer="3326" to-port="3"/>
		<edge from-layer="3326" from-port="4" to-layer="3338" to-port="1"/>
		<edge from-layer="3327" from-port="0" to-layer="3336" to-port="0"/>
		<edge from-layer="3328" from-port="0" to-layer="3336" to-port="1"/>
		<edge from-layer="3329" from-port="0" to-layer="3336" to-port="2"/>
		<edge from-layer="3330" from-port="0" to-layer="3331" to-port="1"/>
		<edge from-layer="3331" from-port="2" to-layer="3332" to-port="0"/>
		<edge from-layer="3332" from-port="1" to-layer="3335" to-port="0"/>
		<edge from-layer="3333" from-port="0" to-layer="3335" to-port="1"/>
		<edge from-layer="3334" from-port="0" to-layer="3335" to-port="2"/>
		<edge from-layer="3335" from-port="3" to-layer="3336" to-port="3"/>
		<edge from-layer="3336" from-port="4" to-layer="3338" to-port="2"/>
		<edge from-layer="3337" from-port="0" to-layer="3338" to-port="3"/>
		<edge from-layer="3338" from-port="4" to-layer="3339" to-port="0"/>
		<edge from-layer="3340" from-port="0" to-layer="3357" to-port="0"/>
		<edge from-layer="3341" from-port="0" to-layer="3357" to-port="1"/>
		<edge from-layer="3342" from-port="0" to-layer="3357" to-port="2"/>
		<edge from-layer="3343" from-port="0" to-layer="3352" to-port="0"/>
		<edge from-layer="3344" from-port="1" to-layer="3347" to-port="0"/>
		<edge from-layer="3345" from-port="0" to-layer="3347" to-port="1"/>
		<edge from-layer="3346" from-port="0" to-layer="3347" to-port="2"/>
		<edge from-layer="3347" from-port="3" to-layer="3349" to-port="0"/>
		<edge from-layer="3348" from-port="0" to-layer="3349" to-port="1"/>
		<edge from-layer="3349" from-port="2" to-layer="3351" to-port="0"/>
		<edge from-layer="3350" from-port="0" to-layer="3351" to-port="1"/>
		<edge from-layer="3351" from-port="2" to-layer="3352" to-port="1"/>
		<edge from-layer="3352" from-port="2" to-layer="3362" to-port="0"/>
		<edge from-layer="3352" from-port="2" to-layer="3353" to-port="0"/>
		<edge from-layer="3353" from-port="1" to-layer="3356" to-port="0"/>
		<edge from-layer="3354" from-port="0" to-layer="3356" to-port="1"/>
		<edge from-layer="3355" from-port="0" to-layer="3356" to-port="2"/>
		<edge from-layer="3356" from-port="3" to-layer="3357" to-port="3"/>
		<edge from-layer="3357" from-port="4" to-layer="3369" to-port="1"/>
		<edge from-layer="3358" from-port="0" to-layer="3367" to-port="0"/>
		<edge from-layer="3359" from-port="0" to-layer="3367" to-port="1"/>
		<edge from-layer="3360" from-port="0" to-layer="3367" to-port="2"/>
		<edge from-layer="3361" from-port="0" to-layer="3362" to-port="1"/>
		<edge from-layer="3362" from-port="2" to-layer="3363" to-port="0"/>
		<edge from-layer="3363" from-port="1" to-layer="3366" to-port="0"/>
		<edge from-layer="3364" from-port="0" to-layer="3366" to-port="1"/>
		<edge from-layer="3365" from-port="0" to-layer="3366" to-port="2"/>
		<edge from-layer="3366" from-port="3" to-layer="3367" to-port="3"/>
		<edge from-layer="3367" from-port="4" to-layer="3369" to-port="2"/>
		<edge from-layer="3368" from-port="0" to-layer="3369" to-port="3"/>
		<edge from-layer="3369" from-port="4" to-layer="3370" to-port="0"/>
		<edge from-layer="3371" from-port="0" to-layer="3388" to-port="0"/>
		<edge from-layer="3372" from-port="0" to-layer="3388" to-port="1"/>
		<edge from-layer="3373" from-port="0" to-layer="3388" to-port="2"/>
		<edge from-layer="3374" from-port="0" to-layer="3383" to-port="0"/>
		<edge from-layer="3375" from-port="1" to-layer="3378" to-port="0"/>
		<edge from-layer="3376" from-port="0" to-layer="3378" to-port="1"/>
		<edge from-layer="3377" from-port="0" to-layer="3378" to-port="2"/>
		<edge from-layer="3378" from-port="3" to-layer="3380" to-port="0"/>
		<edge from-layer="3379" from-port="0" to-layer="3380" to-port="1"/>
		<edge from-layer="3380" from-port="2" to-layer="3382" to-port="0"/>
		<edge from-layer="3381" from-port="0" to-layer="3382" to-port="1"/>
		<edge from-layer="3382" from-port="2" to-layer="3383" to-port="1"/>
		<edge from-layer="3383" from-port="2" to-layer="3393" to-port="0"/>
		<edge from-layer="3383" from-port="2" to-layer="3384" to-port="0"/>
		<edge from-layer="3384" from-port="1" to-layer="3387" to-port="0"/>
		<edge from-layer="3385" from-port="0" to-layer="3387" to-port="1"/>
		<edge from-layer="3386" from-port="0" to-layer="3387" to-port="2"/>
		<edge from-layer="3387" from-port="3" to-layer="3388" to-port="3"/>
		<edge from-layer="3388" from-port="4" to-layer="3400" to-port="1"/>
		<edge from-layer="3389" from-port="0" to-layer="3398" to-port="0"/>
		<edge from-layer="3390" from-port="0" to-layer="3398" to-port="1"/>
		<edge from-layer="3391" from-port="0" to-layer="3398" to-port="2"/>
		<edge from-layer="3392" from-port="0" to-layer="3393" to-port="1"/>
		<edge from-layer="3393" from-port="2" to-layer="3394" to-port="0"/>
		<edge from-layer="3394" from-port="1" to-layer="3397" to-port="0"/>
		<edge from-layer="3395" from-port="0" to-layer="3397" to-port="1"/>
		<edge from-layer="3396" from-port="0" to-layer="3397" to-port="2"/>
		<edge from-layer="3397" from-port="3" to-layer="3398" to-port="3"/>
		<edge from-layer="3398" from-port="4" to-layer="3400" to-port="2"/>
		<edge from-layer="3399" from-port="0" to-layer="3400" to-port="3"/>
		<edge from-layer="3400" from-port="4" to-layer="3401" to-port="0"/>
		<edge from-layer="3402" from-port="0" to-layer="3419" to-port="0"/>
		<edge from-layer="3403" from-port="0" to-layer="3419" to-port="1"/>
		<edge from-layer="3404" from-port="0" to-layer="3419" to-port="2"/>
		<edge from-layer="3405" from-port="0" to-layer="3414" to-port="0"/>
		<edge from-layer="3406" from-port="1" to-layer="3409" to-port="0"/>
		<edge from-layer="3407" from-port="0" to-layer="3409" to-port="1"/>
		<edge from-layer="3408" from-port="0" to-layer="3409" to-port="2"/>
		<edge from-layer="3409" from-port="3" to-layer="3411" to-port="0"/>
		<edge from-layer="3410" from-port="0" to-layer="3411" to-port="1"/>
		<edge from-layer="3411" from-port="2" to-layer="3413" to-port="0"/>
		<edge from-layer="3412" from-port="0" to-layer="3413" to-port="1"/>
		<edge from-layer="3413" from-port="2" to-layer="3414" to-port="1"/>
		<edge from-layer="3414" from-port="2" to-layer="3424" to-port="0"/>
		<edge from-layer="3414" from-port="2" to-layer="3415" to-port="0"/>
		<edge from-layer="3415" from-port="1" to-layer="3418" to-port="0"/>
		<edge from-layer="3416" from-port="0" to-layer="3418" to-port="1"/>
		<edge from-layer="3417" from-port="0" to-layer="3418" to-port="2"/>
		<edge from-layer="3418" from-port="3" to-layer="3419" to-port="3"/>
		<edge from-layer="3419" from-port="4" to-layer="3431" to-port="1"/>
		<edge from-layer="3420" from-port="0" to-layer="3429" to-port="0"/>
		<edge from-layer="3421" from-port="0" to-layer="3429" to-port="1"/>
		<edge from-layer="3422" from-port="0" to-layer="3429" to-port="2"/>
		<edge from-layer="3423" from-port="0" to-layer="3424" to-port="1"/>
		<edge from-layer="3424" from-port="2" to-layer="3425" to-port="0"/>
		<edge from-layer="3425" from-port="1" to-layer="3428" to-port="0"/>
		<edge from-layer="3426" from-port="0" to-layer="3428" to-port="1"/>
		<edge from-layer="3427" from-port="0" to-layer="3428" to-port="2"/>
		<edge from-layer="3428" from-port="3" to-layer="3429" to-port="3"/>
		<edge from-layer="3429" from-port="4" to-layer="3431" to-port="2"/>
		<edge from-layer="3430" from-port="0" to-layer="3431" to-port="3"/>
		<edge from-layer="3431" from-port="4" to-layer="3432" to-port="0"/>
		<edge from-layer="3433" from-port="0" to-layer="3450" to-port="0"/>
		<edge from-layer="3434" from-port="0" to-layer="3450" to-port="1"/>
		<edge from-layer="3435" from-port="0" to-layer="3450" to-port="2"/>
		<edge from-layer="3436" from-port="0" to-layer="3445" to-port="0"/>
		<edge from-layer="3437" from-port="1" to-layer="3440" to-port="0"/>
		<edge from-layer="3438" from-port="0" to-layer="3440" to-port="1"/>
		<edge from-layer="3439" from-port="0" to-layer="3440" to-port="2"/>
		<edge from-layer="3440" from-port="3" to-layer="3442" to-port="0"/>
		<edge from-layer="3441" from-port="0" to-layer="3442" to-port="1"/>
		<edge from-layer="3442" from-port="2" to-layer="3444" to-port="0"/>
		<edge from-layer="3443" from-port="0" to-layer="3444" to-port="1"/>
		<edge from-layer="3444" from-port="2" to-layer="3445" to-port="1"/>
		<edge from-layer="3445" from-port="2" to-layer="3446" to-port="0"/>
		<edge from-layer="3445" from-port="2" to-layer="3455" to-port="0"/>
		<edge from-layer="3446" from-port="1" to-layer="3449" to-port="0"/>
		<edge from-layer="3447" from-port="0" to-layer="3449" to-port="1"/>
		<edge from-layer="3448" from-port="0" to-layer="3449" to-port="2"/>
		<edge from-layer="3449" from-port="3" to-layer="3450" to-port="3"/>
		<edge from-layer="3450" from-port="4" to-layer="3462" to-port="1"/>
		<edge from-layer="3451" from-port="0" to-layer="3460" to-port="0"/>
		<edge from-layer="3452" from-port="0" to-layer="3460" to-port="1"/>
		<edge from-layer="3453" from-port="0" to-layer="3460" to-port="2"/>
		<edge from-layer="3454" from-port="0" to-layer="3455" to-port="1"/>
		<edge from-layer="3455" from-port="2" to-layer="3456" to-port="0"/>
		<edge from-layer="3456" from-port="1" to-layer="3459" to-port="0"/>
		<edge from-layer="3457" from-port="0" to-layer="3459" to-port="1"/>
		<edge from-layer="3458" from-port="0" to-layer="3459" to-port="2"/>
		<edge from-layer="3459" from-port="3" to-layer="3460" to-port="3"/>
		<edge from-layer="3460" from-port="4" to-layer="3462" to-port="2"/>
		<edge from-layer="3461" from-port="0" to-layer="3462" to-port="3"/>
		<edge from-layer="3462" from-port="4" to-layer="3463" to-port="0"/>
		<edge from-layer="3464" from-port="0" to-layer="3479" to-port="0"/>
		<edge from-layer="3465" from-port="0" to-layer="3474" to-port="0"/>
		<edge from-layer="3466" from-port="1" to-layer="3469" to-port="0"/>
		<edge from-layer="3467" from-port="0" to-layer="3469" to-port="1"/>
		<edge from-layer="3468" from-port="0" to-layer="3469" to-port="2"/>
		<edge from-layer="3469" from-port="3" to-layer="3471" to-port="0"/>
		<edge from-layer="3470" from-port="0" to-layer="3471" to-port="1"/>
		<edge from-layer="3471" from-port="2" to-layer="3473" to-port="0"/>
		<edge from-layer="3472" from-port="0" to-layer="3473" to-port="1"/>
		<edge from-layer="3473" from-port="2" to-layer="3474" to-port="1"/>
		<edge from-layer="3474" from-port="2" to-layer="3475" to-port="0"/>
		<edge from-layer="3474" from-port="2" to-layer="3482" to-port="0"/>
		<edge from-layer="3475" from-port="1" to-layer="3478" to-port="0"/>
		<edge from-layer="3476" from-port="0" to-layer="3478" to-port="1"/>
		<edge from-layer="3477" from-port="0" to-layer="3478" to-port="2"/>
		<edge from-layer="3478" from-port="3" to-layer="3479" to-port="1"/>
		<edge from-layer="3479" from-port="2" to-layer="3489" to-port="1"/>
		<edge from-layer="3480" from-port="0" to-layer="3487" to-port="0"/>
		<edge from-layer="3481" from-port="0" to-layer="3482" to-port="1"/>
		<edge from-layer="3482" from-port="2" to-layer="3483" to-port="0"/>
		<edge from-layer="3483" from-port="1" to-layer="3486" to-port="0"/>
		<edge from-layer="3484" from-port="0" to-layer="3486" to-port="1"/>
		<edge from-layer="3485" from-port="0" to-layer="3486" to-port="2"/>
		<edge from-layer="3486" from-port="3" to-layer="3487" to-port="1"/>
		<edge from-layer="3487" from-port="2" to-layer="3489" to-port="2"/>
		<edge from-layer="3488" from-port="0" to-layer="3489" to-port="3"/>
		<edge from-layer="3489" from-port="4" to-layer="3490" to-port="0"/>
		<edge from-layer="3491" from-port="0" to-layer="3508" to-port="0"/>
		<edge from-layer="3492" from-port="0" to-layer="3508" to-port="1"/>
		<edge from-layer="3493" from-port="0" to-layer="3508" to-port="2"/>
		<edge from-layer="3494" from-port="0" to-layer="3503" to-port="0"/>
		<edge from-layer="3495" from-port="1" to-layer="3498" to-port="0"/>
		<edge from-layer="3496" from-port="0" to-layer="3498" to-port="1"/>
		<edge from-layer="3497" from-port="0" to-layer="3498" to-port="2"/>
		<edge from-layer="3498" from-port="3" to-layer="3500" to-port="0"/>
		<edge from-layer="3499" from-port="0" to-layer="3500" to-port="1"/>
		<edge from-layer="3500" from-port="2" to-layer="3502" to-port="0"/>
		<edge from-layer="3501" from-port="0" to-layer="3502" to-port="1"/>
		<edge from-layer="3502" from-port="2" to-layer="3503" to-port="1"/>
		<edge from-layer="3503" from-port="2" to-layer="3513" to-port="0"/>
		<edge from-layer="3503" from-port="2" to-layer="3504" to-port="0"/>
		<edge from-layer="3504" from-port="1" to-layer="3507" to-port="0"/>
		<edge from-layer="3505" from-port="0" to-layer="3507" to-port="1"/>
		<edge from-layer="3506" from-port="0" to-layer="3507" to-port="2"/>
		<edge from-layer="3507" from-port="3" to-layer="3508" to-port="3"/>
		<edge from-layer="3508" from-port="4" to-layer="3520" to-port="1"/>
		<edge from-layer="3509" from-port="0" to-layer="3518" to-port="0"/>
		<edge from-layer="3510" from-port="0" to-layer="3518" to-port="1"/>
		<edge from-layer="3511" from-port="0" to-layer="3518" to-port="2"/>
		<edge from-layer="3512" from-port="0" to-layer="3513" to-port="1"/>
		<edge from-layer="3513" from-port="2" to-layer="3514" to-port="0"/>
		<edge from-layer="3514" from-port="1" to-layer="3517" to-port="0"/>
		<edge from-layer="3515" from-port="0" to-layer="3517" to-port="1"/>
		<edge from-layer="3516" from-port="0" to-layer="3517" to-port="2"/>
		<edge from-layer="3517" from-port="3" to-layer="3518" to-port="3"/>
		<edge from-layer="3518" from-port="4" to-layer="3520" to-port="2"/>
		<edge from-layer="3519" from-port="0" to-layer="3520" to-port="3"/>
		<edge from-layer="3520" from-port="4" to-layer="3521" to-port="0"/>
		<edge from-layer="3522" from-port="0" to-layer="3539" to-port="0"/>
		<edge from-layer="3523" from-port="0" to-layer="3539" to-port="1"/>
		<edge from-layer="3524" from-port="0" to-layer="3539" to-port="2"/>
		<edge from-layer="3525" from-port="0" to-layer="3534" to-port="0"/>
		<edge from-layer="3526" from-port="1" to-layer="3529" to-port="0"/>
		<edge from-layer="3527" from-port="0" to-layer="3529" to-port="1"/>
		<edge from-layer="3528" from-port="0" to-layer="3529" to-port="2"/>
		<edge from-layer="3529" from-port="3" to-layer="3531" to-port="0"/>
		<edge from-layer="3530" from-port="0" to-layer="3531" to-port="1"/>
		<edge from-layer="3531" from-port="2" to-layer="3533" to-port="0"/>
		<edge from-layer="3532" from-port="0" to-layer="3533" to-port="1"/>
		<edge from-layer="3533" from-port="2" to-layer="3534" to-port="1"/>
		<edge from-layer="3534" from-port="2" to-layer="3544" to-port="0"/>
		<edge from-layer="3534" from-port="2" to-layer="3535" to-port="0"/>
		<edge from-layer="3535" from-port="1" to-layer="3538" to-port="0"/>
		<edge from-layer="3536" from-port="0" to-layer="3538" to-port="1"/>
		<edge from-layer="3537" from-port="0" to-layer="3538" to-port="2"/>
		<edge from-layer="3538" from-port="3" to-layer="3539" to-port="3"/>
		<edge from-layer="3539" from-port="4" to-layer="3551" to-port="1"/>
		<edge from-layer="3540" from-port="0" to-layer="3549" to-port="0"/>
		<edge from-layer="3541" from-port="0" to-layer="3549" to-port="1"/>
		<edge from-layer="3542" from-port="0" to-layer="3549" to-port="2"/>
		<edge from-layer="3543" from-port="0" to-layer="3544" to-port="1"/>
		<edge from-layer="3544" from-port="2" to-layer="3545" to-port="0"/>
		<edge from-layer="3545" from-port="1" to-layer="3548" to-port="0"/>
		<edge from-layer="3546" from-port="0" to-layer="3548" to-port="1"/>
		<edge from-layer="3547" from-port="0" to-layer="3548" to-port="2"/>
		<edge from-layer="3548" from-port="3" to-layer="3549" to-port="3"/>
		<edge from-layer="3549" from-port="4" to-layer="3551" to-port="2"/>
		<edge from-layer="3550" from-port="0" to-layer="3551" to-port="3"/>
		<edge from-layer="3551" from-port="4" to-layer="3552" to-port="0"/>
		<edge from-layer="3553" from-port="0" to-layer="3570" to-port="0"/>
		<edge from-layer="3554" from-port="0" to-layer="3570" to-port="1"/>
		<edge from-layer="3555" from-port="0" to-layer="3570" to-port="2"/>
		<edge from-layer="3556" from-port="0" to-layer="3565" to-port="0"/>
		<edge from-layer="3557" from-port="1" to-layer="3560" to-port="0"/>
		<edge from-layer="3558" from-port="0" to-layer="3560" to-port="1"/>
		<edge from-layer="3559" from-port="0" to-layer="3560" to-port="2"/>
		<edge from-layer="3560" from-port="3" to-layer="3562" to-port="0"/>
		<edge from-layer="3561" from-port="0" to-layer="3562" to-port="1"/>
		<edge from-layer="3562" from-port="2" to-layer="3564" to-port="0"/>
		<edge from-layer="3563" from-port="0" to-layer="3564" to-port="1"/>
		<edge from-layer="3564" from-port="2" to-layer="3565" to-port="1"/>
		<edge from-layer="3565" from-port="2" to-layer="3575" to-port="0"/>
		<edge from-layer="3565" from-port="2" to-layer="3566" to-port="0"/>
		<edge from-layer="3566" from-port="1" to-layer="3569" to-port="0"/>
		<edge from-layer="3567" from-port="0" to-layer="3569" to-port="1"/>
		<edge from-layer="3568" from-port="0" to-layer="3569" to-port="2"/>
		<edge from-layer="3569" from-port="3" to-layer="3570" to-port="3"/>
		<edge from-layer="3570" from-port="4" to-layer="3582" to-port="1"/>
		<edge from-layer="3571" from-port="0" to-layer="3580" to-port="0"/>
		<edge from-layer="3572" from-port="0" to-layer="3580" to-port="1"/>
		<edge from-layer="3573" from-port="0" to-layer="3580" to-port="2"/>
		<edge from-layer="3574" from-port="0" to-layer="3575" to-port="1"/>
		<edge from-layer="3575" from-port="2" to-layer="3576" to-port="0"/>
		<edge from-layer="3576" from-port="1" to-layer="3579" to-port="0"/>
		<edge from-layer="3577" from-port="0" to-layer="3579" to-port="1"/>
		<edge from-layer="3578" from-port="0" to-layer="3579" to-port="2"/>
		<edge from-layer="3579" from-port="3" to-layer="3580" to-port="3"/>
		<edge from-layer="3580" from-port="4" to-layer="3582" to-port="2"/>
		<edge from-layer="3581" from-port="0" to-layer="3582" to-port="3"/>
		<edge from-layer="3582" from-port="4" to-layer="3583" to-port="0"/>
		<edge from-layer="3584" from-port="0" to-layer="3601" to-port="0"/>
		<edge from-layer="3585" from-port="0" to-layer="3601" to-port="1"/>
		<edge from-layer="3586" from-port="0" to-layer="3601" to-port="2"/>
		<edge from-layer="3587" from-port="0" to-layer="3596" to-port="0"/>
		<edge from-layer="3588" from-port="1" to-layer="3591" to-port="0"/>
		<edge from-layer="3589" from-port="0" to-layer="3591" to-port="1"/>
		<edge from-layer="3590" from-port="0" to-layer="3591" to-port="2"/>
		<edge from-layer="3591" from-port="3" to-layer="3593" to-port="0"/>
		<edge from-layer="3592" from-port="0" to-layer="3593" to-port="1"/>
		<edge from-layer="3593" from-port="2" to-layer="3595" to-port="0"/>
		<edge from-layer="3594" from-port="0" to-layer="3595" to-port="1"/>
		<edge from-layer="3595" from-port="2" to-layer="3596" to-port="1"/>
		<edge from-layer="3596" from-port="2" to-layer="3606" to-port="0"/>
		<edge from-layer="3596" from-port="2" to-layer="3597" to-port="0"/>
		<edge from-layer="3597" from-port="1" to-layer="3600" to-port="0"/>
		<edge from-layer="3598" from-port="0" to-layer="3600" to-port="1"/>
		<edge from-layer="3599" from-port="0" to-layer="3600" to-port="2"/>
		<edge from-layer="3600" from-port="3" to-layer="3601" to-port="3"/>
		<edge from-layer="3601" from-port="4" to-layer="3613" to-port="1"/>
		<edge from-layer="3602" from-port="0" to-layer="3611" to-port="0"/>
		<edge from-layer="3603" from-port="0" to-layer="3611" to-port="1"/>
		<edge from-layer="3604" from-port="0" to-layer="3611" to-port="2"/>
		<edge from-layer="3605" from-port="0" to-layer="3606" to-port="1"/>
		<edge from-layer="3606" from-port="2" to-layer="3607" to-port="0"/>
		<edge from-layer="3607" from-port="1" to-layer="3610" to-port="0"/>
		<edge from-layer="3608" from-port="0" to-layer="3610" to-port="1"/>
		<edge from-layer="3609" from-port="0" to-layer="3610" to-port="2"/>
		<edge from-layer="3610" from-port="3" to-layer="3611" to-port="3"/>
		<edge from-layer="3611" from-port="4" to-layer="3613" to-port="2"/>
		<edge from-layer="3612" from-port="0" to-layer="3613" to-port="3"/>
		<edge from-layer="3613" from-port="4" to-layer="3614" to-port="0"/>
		<edge from-layer="3615" from-port="0" to-layer="3632" to-port="0"/>
		<edge from-layer="3616" from-port="0" to-layer="3632" to-port="1"/>
		<edge from-layer="3617" from-port="0" to-layer="3632" to-port="2"/>
		<edge from-layer="3618" from-port="0" to-layer="3627" to-port="0"/>
		<edge from-layer="3619" from-port="1" to-layer="3622" to-port="0"/>
		<edge from-layer="3620" from-port="0" to-layer="3622" to-port="1"/>
		<edge from-layer="3621" from-port="0" to-layer="3622" to-port="2"/>
		<edge from-layer="3622" from-port="3" to-layer="3624" to-port="0"/>
		<edge from-layer="3623" from-port="0" to-layer="3624" to-port="1"/>
		<edge from-layer="3624" from-port="2" to-layer="3626" to-port="0"/>
		<edge from-layer="3625" from-port="0" to-layer="3626" to-port="1"/>
		<edge from-layer="3626" from-port="2" to-layer="3627" to-port="1"/>
		<edge from-layer="3627" from-port="2" to-layer="3628" to-port="0"/>
		<edge from-layer="3627" from-port="2" to-layer="3637" to-port="0"/>
		<edge from-layer="3628" from-port="1" to-layer="3631" to-port="0"/>
		<edge from-layer="3629" from-port="0" to-layer="3631" to-port="1"/>
		<edge from-layer="3630" from-port="0" to-layer="3631" to-port="2"/>
		<edge from-layer="3631" from-port="3" to-layer="3632" to-port="3"/>
		<edge from-layer="3632" from-port="4" to-layer="3644" to-port="1"/>
		<edge from-layer="3633" from-port="0" to-layer="3642" to-port="0"/>
		<edge from-layer="3634" from-port="0" to-layer="3642" to-port="1"/>
		<edge from-layer="3635" from-port="0" to-layer="3642" to-port="2"/>
		<edge from-layer="3636" from-port="0" to-layer="3637" to-port="1"/>
		<edge from-layer="3637" from-port="2" to-layer="3638" to-port="0"/>
		<edge from-layer="3638" from-port="1" to-layer="3641" to-port="0"/>
		<edge from-layer="3639" from-port="0" to-layer="3641" to-port="1"/>
		<edge from-layer="3640" from-port="0" to-layer="3641" to-port="2"/>
		<edge from-layer="3641" from-port="3" to-layer="3642" to-port="3"/>
		<edge from-layer="3642" from-port="4" to-layer="3644" to-port="2"/>
		<edge from-layer="3643" from-port="0" to-layer="3644" to-port="3"/>
		<edge from-layer="3644" from-port="4" to-layer="3645" to-port="0"/>
	</edges>
	<meta_data>
		<MO_version value="2021.4.1-3890-e19b3befb78-releases/2021/4"/>
		<cli_parameters>
			<caffe_parser_path value="DIR"/>
			<data_type value="FP32"/>
			<disable_nhwc_to_nchw value="False"/>
			<disable_omitting_optional value="False"/>
			<disable_resnet_optimization value="False"/>
			<disable_weights_compression value="False"/>
			<enable_concat_optimization value="False"/>
			<enable_flattening_nested_params value="False"/>
			<enable_ssd_gluoncv value="False"/>
			<extensions value="DIR"/>
			<framework value="onnx"/>
			<freeze_placeholder_with_value value="{}"/>
			<generate_deprecated_IR_V7 value="False"/>
			<input value="input,inp_state_000,inp_state_001,inp_state_002,inp_state_003,inp_state_004,inp_state_005,inp_state_006,inp_state_007,inp_state_008,inp_state_009,inp_state_010,inp_state_011,inp_state_012,inp_state_013,inp_state_014,inp_state_015,inp_state_016,inp_state_017,inp_state_018,inp_state_019,inp_state_020,inp_state_021,inp_state_022,inp_state_023,inp_state_024,inp_state_025,inp_state_026,inp_state_027,inp_state_028,inp_state_029,inp_state_030,inp_state_031,inp_state_032,inp_state_033,inp_state_034,inp_state_035,inp_state_036,inp_state_037,inp_state_038,inp_state_039,inp_state_040,inp_state_041,inp_state_042,inp_state_043,inp_state_044,inp_state_045,inp_state_046,inp_state_047,inp_state_048,inp_state_049"/>
			<input_model value="DIR/model.onnx"/>
			<input_model_is_text value="False"/>
			<input_shape value="[1,2048],[1,128],[1,2,129,2],[1,18,129,2],[1,34,129,2],[1,129,32,32],[1,129,32,32],[1,32,64,2],[1,48,64,2],[1,64,64,2],[1,64,64,22],[1,64,64,22],[1,64,32,2],[1,96,32,2],[1,128,32,2],[1,32,128,16],[1,32,128,16],[1,128,16,2],[1,192,16,2],[1,256,16,2],[1,16,256,11],[1,16,256,11],[1,256,8,2],[1,384,8,2],[1,512,8,2],[1,8,256,8],[1,8,256,8],[1,512,16,2],[1,256,16,2],[1,384,16,2],[1,512,16,2],[1,16,128,11],[1,16,128,11],[1,256,32,2],[1,128,32,2],[1,192,32,2],[1,256,32,2],[1,32,64,16],[1,32,64,16],[1,128,64,2],[1,64,64,2],[1,96,64,2],[1,128,64,2],[1,64,32,22],[1,64,32,22],[1,64,129,2],[1,32,129,2],[1,48,129,2],[1,64,129,2],[1,2,129,4],[1,2,129,1]"/>
			<k value="DIR/CustomLayersMapping.xml"/>
			<keep_shape_ops value="True"/>
			<legacy_ir_generation value="False"/>
			<legacy_mxnet_model value="False"/>
			<log_level value="ERROR"/>
			<mean_scale_values value="{}"/>
			<mean_values value="()"/>
			<model_name value="noise-suppression-poconetlike-0001"/>
			<output value="['output', 'out_state_000', 'out_state_001', 'out_state_002', 'out_state_003', 'out_state_004', 'out_state_005', 'out_state_006', 'out_state_007', 'out_state_008', 'out_state_009', 'out_state_010', 'out_state_011', 'out_state_012', 'out_state_013', 'out_state_014', 'out_state_015', 'out_state_016', 'out_state_017', 'out_state_018', 'out_state_019', 'out_state_020', 'out_state_021', 'out_state_022', 'out_state_023', 'out_state_024', 'out_state_025', 'out_state_026', 'out_state_027', 'out_state_028', 'out_state_029', 'out_state_030', 'out_state_031', 'out_state_032', 'out_state_033', 'out_state_034', 'out_state_035', 'out_state_036', 'out_state_037', 'out_state_038', 'out_state_039', 'out_state_040', 'out_state_041', 'out_state_042', 'out_state_043', 'out_state_044', 'out_state_045', 'out_state_046', 'out_state_047', 'out_state_048', 'out_state_049']"/>
			<output_dir value="DIR"/>
			<placeholder_data_types value="{}"/>
			<placeholder_shapes value="{'input': array([   1, 2048]), 'inp_state_000': array([  1, 128]), 'inp_state_001': array([  1,   2, 129,   2]), 'inp_state_002': array([  1,  18, 129,   2]), 'inp_state_003': array([  1,  34, 129,   2]), 'inp_state_004': array([  1, 129,  32,  32]), 'inp_state_005': array([  1, 129,  32,  32]), 'inp_state_006': array([ 1, 32, 64,  2]), 'inp_state_007': array([ 1, 48, 64,  2]), 'inp_state_008': array([ 1, 64, 64,  2]), 'inp_state_009': array([ 1, 64, 64, 22]), 'inp_state_010': array([ 1, 64, 64, 22]), 'inp_state_011': array([ 1, 64, 32,  2]), 'inp_state_012': array([ 1, 96, 32,  2]), 'inp_state_013': array([  1, 128,  32,   2]), 'inp_state_014': array([  1,  32, 128,  16]), 'inp_state_015': array([  1,  32, 128,  16]), 'inp_state_016': array([  1, 128,  16,   2]), 'inp_state_017': array([  1, 192,  16,   2]), 'inp_state_018': array([  1, 256,  16,   2]), 'inp_state_019': array([  1,  16, 256,  11]), 'inp_state_020': array([  1,  16, 256,  11]), 'inp_state_021': array([  1, 256,   8,   2]), 'inp_state_022': array([  1, 384,   8,   2]), 'inp_state_023': array([  1, 512,   8,   2]), 'inp_state_024': array([  1,   8, 256,   8]), 'inp_state_025': array([  1,   8, 256,   8]), 'inp_state_026': array([  1, 512,  16,   2]), 'inp_state_027': array([  1, 256,  16,   2]), 'inp_state_028': array([  1, 384,  16,   2]), 'inp_state_029': array([  1, 512,  16,   2]), 'inp_state_030': array([  1,  16, 128,  11]), 'inp_state_031': array([  1,  16, 128,  11]), 'inp_state_032': array([  1, 256,  32,   2]), 'inp_state_033': array([  1, 128,  32,   2]), 'inp_state_034': array([  1, 192,  32,   2]), 'inp_state_035': array([  1, 256,  32,   2]), 'inp_state_036': array([ 1, 32, 64, 16]), 'inp_state_037': array([ 1, 32, 64, 16]), 'inp_state_038': array([  1, 128,  64,   2]), 'inp_state_039': array([ 1, 64, 64,  2]), 'inp_state_040': array([ 1, 96, 64,  2]), 'inp_state_041': array([  1, 128,  64,   2]), 'inp_state_042': array([ 1, 64, 32, 22]), 'inp_state_043': array([ 1, 64, 32, 22]), 'inp_state_044': array([  1,  64, 129,   2]), 'inp_state_045': array([  1,  32, 129,   2]), 'inp_state_046': array([  1,  48, 129,   2]), 'inp_state_047': array([  1,  64, 129,   2]), 'inp_state_048': array([  1,   2, 129,   4]), 'inp_state_049': array([  1,   2, 129,   1])}"/>
			<progress value="False"/>
			<remove_memory value="False"/>
			<remove_output_softmax value="False"/>
			<reverse_input_channels value="False"/>
			<save_params_from_nd value="False"/>
			<scale_values value="()"/>
			<silent value="False"/>
			<static_shape value="False"/>
			<stream_output value="False"/>
			<transform value=""/>
			<unset unset_cli_parameters="batch, counts, disable_fusing, disable_gfusing, finegrain_fusing, input_checkpoint, input_meta_graph, input_proto, input_symbol, mean_file, mean_file_offsets, move_to_preprocess, nd_prefix_name, pretrained_model_name, saved_model_dir, saved_model_tags, scale, tensorboard_logdir, tensorflow_custom_layer_libraries, tensorflow_custom_operations_config_update, tensorflow_object_detection_api_pipeline_config, tensorflow_use_custom_operations_config, transformations_config"/>
		</cli_parameters>
	</meta_data>
</net>
